trained_models/trained_model.pt (torch, 70235 bytes, 5 tensors)

W_rec f4 [128, 128]
000000 30 80 b0 bc 25 49 2a bc 9b 99 9d 3d 55 24 47 3e
       -0.0215455 -0.010393416 0.076953135 0.19447453
000010 3d 1c 47 3b c6 5a c2 3b b7 11 c5 bc 87 db b8 be
       0.0030381822 0.005931231 -0.024056299 -0.36104986
000020 f7 5a 0c be 49 77 1d be a1 86 4a 3d 37 10 18 be
       -0.13706575 -0.15377535 0.0494448 -0.14849935
000030 53 ac 8a bd 69 08 61 3e f9 ca 37 bd 3e 91 4c 3c
       -0.067711495 0.21975864 -0.044871304 0.0124858
000040 3c fd 0d 3d a2 65 8a be ac 6c c7 3d fc b8 91 be
       0.03466533 -0.27030665 0.097375244 -0.28461444
000050 ad 1f 2a be d7 01 43 3e 6e 18 2c 3e e3 00 b2 3e
       -0.16613646 0.1904367 0.16806194 0.34766302
000060 6a c0 d0 be ed ab aa bc e2 b8 a4 be c3 83 89 be
       -0.407718 -0.020833934 -0.32172304 -0.2685834
000070 66 7e ef bd 6c 5d 22 be 9b 4f 5f 3e 9a 68 b2 3e
       -0.116940305 -0.1585595 0.21807711 0.3484543
000080 48 70 9c 3c 5f 74 8c 3e b9 c8 21 be a2 9a 5c 3e
       0.019096509 0.27432534 -0.15799226 0.21543363
000090 3d be 81 3e 23 d4 3a 3e 48 0e c1 3d f3 31 69 be
       0.25340453 0.18244986 0.09426552 -0.2277296
0000a0 b8 8a b3 3d fb 2d 84 bd 1b 29 37 3e cc 97 11 3d
       0.08766693 -0.064540826 0.17886774 0.035545155
0000b0 f3 8b 00 be 05 26 98 3e 57 85 a3 be fd 03 a5 3e
       -0.12553386 0.29716507 -0.31937668 0.32229605
0000c0 c0 4c 01 3f 17 1d 8f bd cf eb 45 3d f1 a4 38 bc
       0.50507736 -0.0698797 0.048320588 -0.011269794
0000d0 3d a7 17 3c 83 12 62 3e 74 87 2a 3b 00 db 02 3e
       0.009256181 0.22077374 0.0026020678 0.12778854
0000e0 6b ae 92 3e ad f7 30 3e 19 4d 7d 3c 6d 5b 6a be
       0.28648695 0.17281981 0.015460276 -0.22886439
0000f0 a0 3a ad 3e 0c 27 1e bf ac 53 7c 3e f0 6d be bd
       0.3383379 -0.6177833 0.24641293 -0.09298313
000100 8d a0 4e 3d a0 85 6d 3e 8f c3 7c be 13 f0 c9 3e
       0.050446082 0.23195505 -0.24683975 0.39440975
000110 65 62 20 be 17 9f cb 3d 44 30 15 be f3 13 8b 3e
       -0.15662535 0.09942453 -0.14569193 0.27163658
000120 00 ab 48 be 12 2b 74 be 65 91 fe 3c 4e d9 ee 3d
       -0.19596481 -0.23844555 0.031075189 0.11662541
000130 f4 f9 cb ba a0 29 8e 3e f3 c9 95 bd 75 58 ab 3e
       -0.0015562163 0.27766132 -0.073139094 0.33465925
000140 1f e8 ad be 2b b9 c1 bd 5a a7 99 3e b3 41 cd be
       -0.33966157 -0.09459146 0.30010492 -0.40089187
000150 52 2e dd bc 91 a0 9a bd a8 6c 01 be 63 e9 5f be
       -0.026999626 -0.07550157 -0.12639105 -0.21866374
000160 97 24 25 3e f6 93 19 3e 2b 32 19 be 74 1c 28 3e
       0.16127239 0.14997849 -0.14960544 0.16417104
000170 0e 3a 9a 3e 52 1e 0f bd e0 77 a3 be 9d 85 e9 be
       0.30122417 -0.034941025 -0.31927395 -0.4560975
000180 29 a8 ae 3d b7 4f af 3e 38 48 93 be 38 83 e5 bc
       0.08528168 0.34240505 -0.28766036 -0.028016672
000190 a5 6b 0b 3d 40 15 eb bd 74 31 89 be 41 77 27 3e
       0.034038205 -0.114786625 -0.26795542 0.16354086
0001a0 a3 ac c3 be 19 95 02 3e 81 e2 48 be d0 14 04 3f
       -0.3821765 0.12752189 -0.19617654 0.5159426
0001b0 e5 e8 1e 3e 80 1f be 3e 00 cc 8d 3d 3a 81 61 be
       0.1551853 0.37133408 0.069236755 -0.22021952
0001c0 11 6d a3 be ca a4 f3 3d 5b 1b f0 be 97 85 80 bb
       -0.3191915 0.118966654 -0.4689587 -0.003922175
0001d0 90 63 d5 bd 05 dc 1a be 8f 43 82 3d b9 94 1e be
       -0.10419381 -0.15122993 0.06360542 -0.1548642
0001e0 38 2b d3 bd 4e e5 9c 3d aa 05 1e be 90 e2 67 3d
       -0.10310978 0.07660924 -0.15431848 0.05661255
0001f0 95 01 b0 3c 30 e3 37 be af f9 ee 3d 11 af 8e 3d
       0.02148513 -0.17957759 0.11668717 0.06966985
000200 54 65 02 bd 20 88 b1 3d 1d 10 0f 3d 84 27 e0 3d
       -0.031834915 0.08668542 0.034927476 0.10945037
000210 40 b8 31 3d dd aa e7 3c a0 79 81 3e 5f 5f c3 be
       0.043388605 0.028279716 0.25288105 -0.381587
000220 c4 57 0d 3e c4 56 ee 3c 06 a9 21 3e 85 d9 36 3d
       0.13803011 0.029094107 0.15787134 0.044641037
000230 d0 13 17 3d 0a f9 ca bd a1 06 42 3e 14 48 42 3d
       0.03688413 -0.09910782 0.18947841 0.04743202
000240 89 22 ba 3d c5 6f 86 be 01 58 f6 3d 49 d3 52 be
       0.09088618 -0.26257148 0.12028504 -0.20588411
000250 6b 01 91 bd d1 ef 15 bc ab 73 41 3e fd 88 21 3d
       -0.070803486 -0.009151415 0.1889178 0.039437283
000260 3b 08 c7 bd 80 96 dd bd ab 4f 10 3d 0a 73 f2 bd
       -0.09718367 -0.10819721 0.035232227 -0.11838348
000270 17 ec 81 be 31 20 69 3b a2 ef 95 3c 86 00 47 3e
       -0.25375435 0.0035572166 0.018302742 0.19433793
000280 46 db 0a 3e 84 b7 bc 3e 28 fb 26 3e 7b 52 b6 3d
       0.13560209 0.3685876 0.16306746 0.08902451
000290 0f f5 5f 3e 60 08 c8 3d b6 64 21 3d d3 22 19 3d
       0.21870826 0.097672224 0.039402686 0.037386727
0002a0 2c 40 2b 3e 33 9c 74 bd 95 c1 1c 3e 2d 61 34 bd
       0.16723698 -0.059719276 0.1530822 -0.044037987
0002b0 f2 58 2d 3e 68 e9 5a 3e 6e c3 17 be 58 8e 90 3e
       0.16928461 0.213781 -0.14820644 0.282336
0002c0 95 59 4b 3e 4a 21 1e bd 60 b0 45 3d 8c 05 b6 3b
       0.19858392 -0.038605966 0.048263907 0.0055548605
0002d0 c3 09 b3 bd bc ac e4 3e d4 be c1 3e 7d fb a1 3d
       -0.08742096 0.44663036 0.37840903 0.07909296
0002e0 cd 02 94 3e a7 b8 f8 3d 26 b5 15 be 73 09 bf bd
       0.28908387 0.12144595 -0.14619884 -0.09327974
0002f0 e9 2c 43 bc 40 b1 10 be d3 ee 81 3e 9a 63 ba bd
       -0.011912563 -0.14130116 0.2537752 -0.09101029
000300 95 f7 8d 3d 6b 9f 54 3e d2 d7 b8 bd e8 02 6c 3e
       0.06931988 0.20763938 -0.090255395 0.23047984
000310 a7 eb 69 be f2 39 fa 3c 22 65 c4 bd c8 83 2e 3c
       -0.228438 0.030545209 -0.09589602 0.010651536
000320 9e 1f 01 be 2f 08 8a be f0 0e ea bd b1 8e 6b be
       -0.12609717 -0.2695937 -0.1142863 -0.23003651
000330 76 58 fa 3a 5e 8d d6 3e a1 27 76 bd 37 ee 48 3e
       0.001909985 0.4190473 -0.060096387 0.19622122
000340 eb 58 1c 3d e4 7e af 3c 91 d3 e6 3d 07 54 40 3d
       0.038170736 0.02142281 0.11270822 0.046955135
000350 6f 36 db bd 5e 17 0c 3e 9b d9 3a bd 9a 09 64 be
       -0.10703742 0.13680789 -0.04561768 -0.22269288
000360 4b f0 14 3e fa 4a 09 3e 5e e8 39 bb 45 7a 0b 3e
       0.1454479 0.13407508 -0.0028367261 0.13620861
000370 d9 76 93 3e 61 95 7c 3d 07 a0 3e be e1 4b f1 3d
       0.2880161 0.061665896 -0.18615733 0.11782051
000380 4b 6f 27 3e b7 ae a9 3d a0 ef 04 3e 86 c2 a1 3d
       0.16351049 0.08285277 0.12982035 0.078984305
000390 15 92 d4 bc 5e 4a 6c bd ce 2c af be c0 95 55 bc
       -0.025948564 -0.05768811 -0.3421387 -0.013036191
0003a0 9f 6d a6 bd 56 41 a3 3e a6 66 0c be d5 9c 3c 3e
       -0.08126377 0.31885785 -0.13711032 0.18419202
0003b0 97 c6 db bd 7e 43 c9 3d 72 ed e8 3d c5 e2 1d be
       -0.107312374 0.09827326 0.11373414 -0.15418537
0003c0 cb e6 d0 bd 83 98 db 3d b1 2b 5b be b4 d7 68 3d
       -0.1020027 0.10722449 -0.21403386 0.056846336
0003d0 d2 3f eb bd d5 82 2e bd e1 2c c9 be 67 0d 2e 3e
       -0.11486782 -0.04260524 -0.39292052 0.169973
0003e0 f8 0a 87 bd 5c 85 f2 bd 2c b4 8c be d2 32 5a 3e
       -0.06593889 -0.118418425 -0.2748121 0.21308449
0003f0 0f 40 e2 3d 81 d1 05 bd 72 7a e1 bd 0a d8 8e 3d
       0.110473745 -0.0326705 -0.11009683 0.069748

W_in f4 [3, 128]
000000 45 81 3c 3f df 96 93 3e a4 77 72 3f d2 04 3e 3f
       0.7363475 0.28826043 0.9471381 0.74226105
000010 4e cc 3f 3e f0 7a 0d 3f 3c 59 32 3e df cb 22 bf
       0.1873028 0.5526571 0.17416853 -0.6359233
000020 c1 71 cd 3e b0 01 0b bd 2d 5b ec 3d 91 7b 81 3e
       0.4012585 -0.033937156 0.11540828 0.25289586
000030 ca 1e ba 3e 10 8e bf 3e fb 34 c9 3e a5 a4 b1 3f
       0.36351615 0.37413073 0.39298233 1.387837
000040 9a 92 6c 3f 0e 87 43 be f8 12 07 3e d4 2c 90 be
       0.92411196 -0.19094488 0.1319083 -0.281592
000050 5a aa fb 3e 4e cf bc be df 8c d5 3e 5b 22 28 bf
       0.49153405 -0.3687691 0.4170904 -0.6567742
000060 05 c4 2d bf 1e a1 c1 3e 13 27 1f bf df 1c 3b be
       -0.6787723 0.37818235 -0.62169 -0.18272732
000070 da 22 d9 3e a6 61 0a bf 86 d5 bf be 7c 8f 33 bf
       0.42409402 -0.5405525 -0.37467593 -0.70140815
000080 8f 59 0c 3f 88 29 3e be ce 07 df 3e f9 e2 d6 3d
       0.54824156 -0.1857053 0.43560642 0.1049251
000090 c8 35 b0 be c8 f3 2e 3e fd 45 f9 3e 70 38 25 3e
       -0.34416032 0.17085183 0.4868621 0.1613481
0000a0 a2 d5 01 3f 7e 7d 94 3d f6 15 97 3b 01 bf 7e 3f
       0.507166 0.07250498 0.0046107722 0.995102
0000b0 62 f6 52 3f 03 90 1d bf 41 fe 58 bf 69 98 da be
       0.824072 -0.6154787 -0.8476296 -0.42694405
0000c0 46 d1 4f be 9e 19 25 3f 5c a0 86 3e b3 73 32 3e
       -0.20294675 0.64492214 0.2629422 0.17426948
0000d0 56 32 d6 3f 12 2e 45 be dc 7e 50 bf 59 f8 0d 3e
       1.6734111 -0.19255856 -0.8144357 0.13864268
0000e0 7c 9c 80 3d a1 df 19 3d 82 c9 c4 3e eb e2 10 bf
       0.06279847 0.037566785 0.38434988 -0.5659625
0000f0 2f 07 9a bf 4d 02 18 bf 57 1e 11 bf bf cb 90 bf
       -1.2033442 -0.5937851 -0.5668692 -1.1312178
000100 28 d5 21 3f ed b1 99 bf fc 47 aa 3d 71 01 05 bd
       0.63215876 -1.2007424 0.08314511 -0.032472078
000110 b3 d3 6d 3e 38 06 c1 3e 70 32 20 3e 81 8f ad 3d
       0.23225288 0.37700057 0.1564424 0.08474637
000120 8a 5c aa 3e f1 c4 6b be 07 7f 85 3f aa 19 9a bd
       0.33273727 -0.23024346 1.0429391 -0.07524426
000130 45 09 74 3f d2 30 ac be 5e 30 83 3d fa 5e ec bb
       0.95326644 -0.33630997 0.0640571 -0.0072134705
000140 2b 73 98 bf 26 50 8c 3e 07 5e 08 3d 4e 4e 3b bf
       -1.1910146 0.27404898 0.033292796 -0.7316636
000150 a3 07 61 3f f9 4b b8 3e 7e c6 54 3f 60 bb 93 be
       0.8790228 0.35995463 0.83115375 -0.28853893
000160 85 31 04 3d aa f7 8c bf 24 bf 32 3e f1 64 7c be
       0.032273788 -1.1013081 0.17455727 -0.24647881
000170 d6 77 8f be 86 3d 57 3e 59 ca 68 be dd 5e d9 be
       -0.28021115 0.21019563 -0.2273344 -0.42455187
000180 84 f2 76 3f f5 c2 6e bd 6b 22 8d be dd f5 6d 3e
       0.964638 -0.058291394 -0.2756532 0.2323832
000190 47 fc 21 3e af 50 80 3d e2 d1 2b bf 99 93 13 3f
       0.15818892 0.06265389 -0.6711713 0.5764709
0001a0 79 9f 86 bf ad f1 ca bf 63 b1 1e 3d eb 47 05 be
       -1.0517417 -1.5855004 0.038743388 -0.13015716
0001b0 13 22 5d 3e f9 15 a0 bf d9 a1 90 3f 4e b2 41 bf
       0.2159503 -1.2506706 1.1299392 -0.75662696
0001c0 af 42 98 bf 91 77 71 3f ce a5 a8 be 10 de 94 3d
       -1.189535 0.9432307 -0.32939 0.072689176
0001d0 b0 b3 a7 3e 1b fa 3a 3f 2f 17 c7 be d9 49 16 bf
       0.32754278 0.7303788 -0.38884875 -0.5870643
0001e0 a9 52 a1 3c 1c 77 18 3f 96 d7 a0 be 90 7c 7e be
       0.019692736 0.59556746 -0.3141448 -0.24852204
0001f0 18 8a db 3e 07 a0 b8 3e 78 2b fb 3e 43 bf 73 3f
       0.42878795 0.3605959 0.49056602 0.9521372
000200 08 51 1e bf 2e 0c 90 3f 17 7d a6 3f 5a cc 0a 3f
       -0.61842394 1.1253717 1.3006924 0.54218066
000210 da b3 a3 bf 28 48 33 3f a1 80 a0 3f 2c ae 9a bf
       -1.2789261 0.70031977 1.2539254 -1.2084403
000220 e3 b4 b4 bd e0 d4 c8 be ff a5 60 3f 85 a5 ac bf
       -0.08823564 -0.3922491 0.8775329 -1.3488013
000230 f6 53 41 be d9 71 5a 3f bb 7b 4d bf 7e 70 6b 3f
       -0.18879685 0.8532997 -0.8026692 0.91968524
000240 76 fa ba bf 63 7c 81 bf ac 38 2b be 0f 8c 41 bf
       -1.4607685 -1.0116085 -0.16720837 -0.7560434
000250 d5 6a cb bf fd 92 58 3f 96 94 86 3f 0f 7a 7d 3f
       -1.5891978 0.84599286 1.0514095 0.9901437
000260 3b 34 a1 bf 20 ae 95 bf ad cf ad bf 58 e6 c1 bf
       -1.2594064 -1.1693764 -1.3579003 -1.514842
000270 ef 85 d8 bf 47 cf 3b bf 92 f1 3f 3e 08 e3 89 3d
       -1.6915873 -0.73363155 0.18744496 0.06732756
000280 f2 e8 80 3e 72 61 82 3f 6b 20 b3 bf d8 d8 0f 3f
       0.25177723 1.0185988 -1.3994268 0.5619025
000290 51 b6 bb 3f 94 d0 14 3f 26 d4 92 3f 50 d0 ba bf
       1.4665014 0.58130765 1.1470993 -1.4594822
0002a0 84 20 85 3f 79 eb 33 bf 01 e3 db 3f ff 82 25 bf
       1.0400548 -0.7028118 1.7178651 -0.6465301
0002b0 86 18 7d 3d 01 01 58 3f 56 07 66 bf a0 69 d1 3e
       0.061790965 0.8437653 -0.89854944 0.40900898
0002c0 c9 c8 4b 3f ac f5 ef bf 9c 5b 8e 3f c9 89 ab bf
       0.7960325 -1.8746848 1.1121707 -1.3401424
0002d0 8a 78 14 3e 54 a7 3c 3f 49 2f c1 3f 17 1d 8f 3f
       0.14499107 0.7369282 1.5092555 1.1180753
0002e0 44 4a bb 3f 81 21 95 3f cf 68 91 bf af eb e5 bd
       1.4632039 1.165085 -1.136011 -0.11226594
0002f0 69 15 b5 3f af b6 2e bf 82 11 42 3f 06 ed 18 c0
       1.4147159 -0.68247503 0.75807965 -2.3894668
000300 26 52 cd bd 35 26 a6 be c9 f0 03 c0 84 2c d7 3f
       -0.10025434 -0.32451025 -2.0615714 1.681046
000310 bb 4f 0a c0 16 29 6a 3f cd 10 d9 be ba 8f 31 3f
       -2.1611164 0.9146894 -0.4239563 0.69359934
000320 41 ba c8 bf 71 2e 14 bf 65 3f 6b 3f 2a 2d ba be
       -1.568184 -0.57883364 0.9189361 -0.36362582
000330 7d 02 62 bf 6b e7 b6 3f 78 b8 94 bf 5a 71 5f 3f
       -0.88285047 1.4289373 -1.1618795 0.87282336
000340 33 a9 79 3d 8c fc 94 bf db 1b 24 3f 83 0b 01 c0
       0.060952377 -1.1639571 0.64105004 -2.0163276
000350 dc 0a 92 bf 7b 6b d5 3f 6a d0 1c 3f 7b a2 3c bf
       -1.1409564 1.6673425 0.61255515 -0.73685426
000360 a7 31 20 3f 9a 3b 90 3e 85 0e 78 bf c8 99 07 3e
       0.62575763 0.28170472 -0.96897155 0.13242257
000370 6b 24 01 40 19 21 70 3f 07 bf 8e bf 51 3d c8 bf
       2.0178478 0.93800503 -1.1152047 -1.5643712
000380 ea bc f8 3e 19 22 40 3f 1e c9 2d bf c4 a5 9c 3e
       0.4858163 0.7505203 -0.67885005 0.3059522
000390 ee 19 32 bf 33 61 c0 bf c0 1b be bf 4b ce 82 3f
       -0.69570816 -1.5029663 -1.4852219 1.0219206
0003a0 30 fc 8e bf 5a 73 10 40 19 c1 75 bf 41 3c 31 3f
       -1.1170712 2.2570405 -0.9599777 0.69232565
0003b0 b0 b4 53 3f b3 2e f2 3e 67 66 8a bd 71 a0 ad bf
       0.8269758 0.47301254 -0.06757813 -1.3564588
0003c0 05 77 6d bf e0 ff 84 3f 97 5a b1 bf f7 4e 24 bf
       -0.92759734 1.0390587 -1.3855771 -0.6418299
0003d0 b1 b3 8e bf 11 63 06 3e 7a b4 63 bf 43 61 17 3f
       -1.1148587 0.13123728 -0.8894726 0.59132785
0003e0 10 13 3b bf da b4 28 bf 9f 3a 49 bf 01 6e 1c 3f
       -0.7307596 -0.6590096 -0.78605074 0.6110535
0003f0 b9 55 5d 3d 26 ea b0 bf a4 f6 29 be 07 73 66 bf
       0.05403683 -1.3821456 -0.16597992 -0.9001927

b_rec f4 [128]
000000 7d 78 e0 bb a7 32 be 3c 7a 06 11 3c a5 1a 94 3c
       -0.006850301 0.023217512 0.008851642 0.018079111
000010 6d b9 84 3c 20 af 81 3c 5c b7 17 3d 22 1d 26 bc
       0.0162017 0.015830576 0.0370401 -0.010138782
000020 6b 78 e6 3c ae 12 52 bc a6 21 fb 3c 62 6d 3a 3c
       0.028133592 -0.012821836 0.030655693 0.011378618
000030 75 0e ba 3c af 8e c8 3c fc 0e ec bb a5 c5 24 bb
       0.022711972 0.0244821 -0.0072039347 -0.002514222
000040 a5 1b 3f 3c dd 35 42 bb 04 32 f2 3c dc fb ec 3c
       0.011664306 -0.0029634156 0.029564865 0.02892869
000050 30 4d 7f 3c 35 3b 44 3d a7 a7 b4 3b a5 cf 4c 3c
       0.015582368 0.047908027 0.00551315 0.012500678
000060 af 8e 03 bc 03 48 24 3c dd d9 96 3d c9 71 09 bd
       -0.008029624 0.010026935 0.07365773 -0.03355578
000070 7f 4a 3d 3c 62 65 f5 3c 93 99 4f 3d a3 e5 38 3c
       0.011553406 0.02995557 0.05068357 0.011285218
000080 a0 36 c1 3c ec ba 62 bc 2a 89 d3 3b e5 bd c3 3c
       0.023585618 -0.013838511 0.00645556 0.02389426
000090 ca b9 0f 3d cc 4d 28 3d 4c f5 c9 3c 22 c9 ab 3c
       0.03508929 0.041089818 0.0246531 0.020969931
0000a0 ed 91 3a 3c 71 73 86 3c 3b e6 74 3d 75 4d 73 bb
       0.0113873305 0.016412469 0.059789877 -0.0037125025
0000b0 42 10 21 3c 4d 4a 17 3c 90 e4 28 3d 58 04 f9 3c
       0.009830536 0.009234023 0.0412336 0.03039758
0000c0 a3 fe 5d 3d 4c ec 07 3b 01 92 ae 3c 78 e5 18 3c
       0.05419792 0.002074021 0.021309854 0.009332053
0000d0 2c 8b d2 bc dc aa a0 bc 6c eb 1b bc 97 6d 02 3d
       -0.025701128 -0.019612722 -0.009516578 0.031842794
0000e0 cc 85 1e 3d 69 f5 62 3c dd 7d 74 3c 07 c4 42 bc
       0.038701817 0.013852456 0.014922586 -0.011887557
0000f0 10 e0 90 3d 8d 6f 05 3d 78 68 96 3c 9b 33 d0 3c
       0.070739865 0.032577086 0.018360361 0.025415232
000100 31 bc 1a 3c d1 b0 44 3d 8f 6c 0e 3d 62 4c 56 3d
       0.009444282 0.048020188 0.0347715 0.052318938
000110 72 6e c9 3b 9e 45 59 3c 43 2d 1b 3d 16 e5 14 3d
       0.0061471993 0.013261227 0.03788496 0.036351286
000120 85 0b ac 3c 31 f6 19 3b 71 d8 cd bc 13 77 cc 3a
       0.021001587 0.0023492689 -0.025127621 0.0015599452
000130 f7 16 b4 bb 0a e5 67 ba f8 f6 ff 3c 5c a3 40 3d
       -0.0054959017 -0.000884608 0.031245694 0.04703079
000140 5f de b4 3a 19 c8 c2 3c 5b 73 54 3c 68 c4 15 bc
       0.0013799182 0.023777055 0.012966956 -0.009141065
000150 a6 b6 16 ba 99 41 03 3d 35 c0 f1 3b a9 bd 4b bc
       -0.00057492626 0.03204498 0.007377649 -0.012435355
000160 15 fb 15 3d 9e 47 31 3c 92 29 ee ba 6f 41 9f 3c
       0.036616404 0.0108202975 -0.0018170348 0.01944038
000170 df 50 12 3c 59 b7 05 3c a3 81 89 3c 5a 0c 3d 3d
       0.008930414 0.008161389 0.016785448 0.046154357
000180 4c 5f 0a 3c 19 03 ee 3c 0d 3c eb 3c 12 dc e9 ba
       0.008445572 0.029054211 0.028715158 -0.0017842075
000190 01 b5 dd 3c 7d ce a7 bb 68 2a 03 bd 13 12 2e 3c
       0.027063848 -0.005121051 -0.032022864 0.010624426
0001a0 a6 57 20 ba f9 1d 16 3c d9 a0 ab 3c 4d 99 e1 3c
       -0.0006116576 0.0091624195 0.020950722 0.02753892
0001b0 c2 48 88 3d 54 a2 12 3d f3 5d 84 3a f6 63 36 bc
       0.066545025 0.03579934 0.00100988 -0.011132231
0001c0 65 fa 21 bc 65 c4 15 3b 14 e5 8b 3c 6b c0 9a 3b
       -0.009886359 0.0022852656 0.017077006 0.004722645
0001d0 93 3a 5e 3c ad 76 e8 3a 2f 65 00 bd 7a ee 9e 3d
       0.01356377 0.0017735563 -0.031346496 0.077603295
0001e0 36 82 83 3b b2 6e 12 3c a0 67 ff 3c 06 d0 6a bc
       0.004013325 0.008937525 0.031177342 -0.014331823
0001f0 70 90 1b 3d fd 2e 0f 3b 38 70 f7 bc 71 f2 c9 bb
       0.037979543 0.0021848076 -0.030204877 -0.0061629345

fc_out.weight f4 [2, 128]
000000 71 5e 1f 3d 30 30 fc 3e 27 6d ae 3e 2a ec de 3e
       0.038908426 0.49255514 0.34067652 0.43539554
000010 e1 a7 11 bd 6f 9b 8e 3e 91 03 d6 3e c1 70 fb be
       -0.035560492 0.2785296 0.41799596 -0.49109462
000020 32 36 b8 3e 6a 3d 94 be 7d cc 02 3f 43 08 05 bf
       0.35978848 -0.28953105 0.51093274 -0.5196573
000030 31 2f eb be ba 08 df 3e 2c c6 99 be f0 1d be 3e
       -0.45934442 0.43561345 -0.30034006 0.37132215
000040 c0 9c bb be 49 1f f5 be 55 a9 90 3e b9 48 0a bf
       -0.36643028 -0.4787543 0.2825419 -0.54017216
000050 a9 9a 8c be ad 94 ba 3e 40 9b a9 3e c6 0e de 3e
       -0.27461746 0.36441556 0.3312626 0.43370646
000060 23 85 0a bf ac 84 cd be b0 37 b4 be f6 e6 dd be
       -0.541094 -0.40140283 -0.35198736 -0.43340272
000070 5b c4 ed be d5 36 eb be 9e 08 f3 3e 1c 0d cc 3e
       -0.4643887 -0.4594027 0.47467512 0.39853752
000080 94 e0 ba 3e 55 b3 da 3e 57 58 c5 be 20 70 bf 3e
       0.36499465 0.42714944 -0.3854396 0.37390232
000090 63 4d f0 3e 16 1d 03 3f 71 cd 77 3e 34 5b 09 bf
       0.4693404 0.51216257 0.24199463 -0.5365479
0000a0 91 4c cd 3e 85 33 fb be 27 0e b9 3e dc 83 b1 be
       0.40097478 -0.49062744 0.3614361 -0.34670913
0000b0 97 f9 42 3e 17 9f 08 3f e1 0b 0c bf 33 c4 fd 3e
       0.19040523 0.5336775 -0.54705626 0.4956375
0000c0 98 90 ee 3e 5b 61 ee be 8f fc bc 3e 10 64 c1 be
       0.4659469 -0.4655865 0.36911437 -0.37771654
0000d0 f6 5a 90 be 7d 3e ef 3e e1 c2 ed 3e c4 aa f5 3e
       -0.28194398 0.46727362 0.46437743 0.47981846
0000e0 b0 a3 08 3f 05 f1 d1 3e eb bc 0e bf 70 00 fb be
       0.5337477 0.41004196 -0.55757016 -0.4902377
0000f0 76 93 e5 3e 80 95 cd be 6e 2e e0 3e f1 23 e0 be
       0.44839066 -0.40153122 0.43785423 -0.4377742
000100 a7 6d 8e 3e 6f 0e ed 3e 80 38 08 bf a6 8e f9 3e
       0.27818033 0.46300074 -0.5321121 0.48741645
000110 b0 61 ca be 82 49 bc 3e b3 73 f2 be 23 9b dd 3e
       -0.39527655 0.36774832 -0.47353896 0.43282422
000120 2d ab ca be 33 74 04 bf 93 98 92 3e ef 8f 9a 3d
       -0.39583722 -0.51739806 0.2863203 0.075469844
000130 16 d5 d8 be 61 6c 10 3f 94 c3 f7 be 40 e6 ea 3e
       -0.42350072 0.56415373 -0.48391402 0.45878792
000140 ce 71 fd be fb bf d6 be ff b0 fa 3e 5a 04 f1 be
       -0.4950089 -0.41943344 0.48963162 -0.47073632
000150 2f 60 d0 be 71 3a dc 3e 18 f1 d4 3e 4e c6 dc be
       -0.40698382 0.43013337 0.4159019 -0.43120044
000160 48 0d fa 3e a0 de 9c 3e 79 28 c2 be c4 3e cc 3e
       0.48838258 0.306386 -0.37921503 0.39891636
000170 3b 10 0c 3f e6 de ea 3e 78 a2 09 bf 8b 38 eb be
       0.54712266 0.45873183 -0.5376353 -0.45941576
000180 02 ed 8c 3e 5d 84 b8 3e e5 ea 02 bf 96 63 98 3d
       0.27524573 0.36038485 -0.5113967 0.074408695
000190 98 e9 0c bf 2f 91 9f be e7 38 fc be a9 19 c1 3e
       -0.55043936 -0.31165454 -0.49262163 0.3771489
0001a0 a6 40 f7 be f2 da 10 3f bf 33 e0 be c0 12 d6 3e
       -0.4829151 0.56584084 -0.4378948 0.4181118
0001b0 7a 09 b2 3e 95 c4 d2 3e 3b db 89 3e c0 ef 06 bf
       0.34772855 0.41165605 0.26925072 -0.5270958
0001c0 b7 28 03 bf f5 ca a9 3e 76 dc 01 bf 2c b8 df be
       -0.51234 0.33162656 -0.5072702 -0.436952
0001d0 4a 03 bd be df ad a8 3e bf f8 e1 be 2b e4 c8 be
       -0.36916572 0.32945153 -0.4413509 -0.39236578
0001e0 28 3a 03 bf 2e fb bc be f9 f6 03 bf 5f 86 ed 3e
       -0.51260614 -0.36910385 -0.51548725 0.4639158
0001f0 cc 36 b2 3e 66 bd e8 be 13 1f 9a 3e a1 66 b9 be
       0.34807432 -0.45457 0.30101833 -0.36211112
000200 11 b4 9f bd 02 f4 d3 be ca 47 51 be 30 fa e5 be
       -0.07798017 -0.413971 -0.20437542 -0.4491744
000210 b3 43 76 3d 55 ad 8a be 9c 6b d9 be f4 33 f6 3e
       0.060123157 -0.27085367 -0.42464912 0.48086512
000220 cd a9 b6 be 5a f4 9f 3e a8 2b e8 be fd 40 e9 3e
       -0.35676423 0.31241113 -0.45345807 0.45557395
000230 a3 14 b3 3e 99 f7 d1 be 86 73 b8 3e 71 cd 99 be
       0.34976682 -0.41009215 0.36025637 -0.30039552
000240 1d 65 5a 3e aa 09 01 3f cc 5f a8 be 65 43 c5 3e
       0.21327634 0.5040537 -0.32885587 0.3852798
000250 bc 8c bb 3e 89 1d cd be 87 a8 db be 3d 4f f9 be
       0.3663081 -0.40061596 -0.42902014 -0.48693267
000260 2e 28 cb 3e 02 e6 e2 3e 7d 32 b3 3e 9f 20 08 3f
       0.39679092 0.44316107 0.34999457 0.53174776
000270 6b ff e5 3e 99 05 e0 3e 00 29 ca be 8e 58 fb be
       0.4492143 0.4375427 -0.39484406 -0.49091
000280 34 e1 b2 be be 51 ce be 6e 0c d0 3e 25 0a fa be
       -0.3493744 -0.4029674 0.40634483 -0.48835865
000290 8c 79 e9 be 18 52 bc be 23 81 ca be d9 fe d1 3e
       -0.45600545 -0.36781383 -0.39551648 0.41014746
0002a0 4f b6 9e be fd 5f e1 3e 34 75 f6 be 55 d8 85 3e
       -0.30998465 0.44018546 -0.48136294 0.2614161
0002b0 6d ec 9a be ba 3b db be 38 ed d5 3e 5b ff 0a bf
       -0.30258504 -0.42819005 0.41782546 -0.5429589
0002c0 4e b6 f8 be 04 98 d7 3e c9 36 b1 be 4b 97 fa 3e
       -0.48576587 0.42108166 -0.3461211 0.48943552
0002d0 2c 07 53 3e 8e be 10 bf 0d 14 fd be 3e 41 f9 be
       0.20608205 -0.56540763 -0.4942936 -0.48682588
0002e0 3d 7d d8 be 2c 4b f1 be c9 f2 0f 3f ef aa bc 3e
       -0.4228305 -0.47127664 0.56229836 0.36849162
0002f0 76 cd f6 be 0b b1 03 3f a2 05 14 bf 45 cc 01 3f
       -0.4820363 0.5144202 -0.57821095 0.50702316
000300 52 59 81 be 5a dc bf be 82 3d 00 3f 78 47 bd be
       -0.25263458 -0.37472802 0.50093853 -0.3696859
000310 4c 6f fa 3e 88 d0 c8 be 3b f9 e1 3e e2 c0 03 bf
       0.48913038 -0.39221597 0.4413546 -0.5146619
000320 e3 cd f0 3e d5 25 03 3f 6d cb 3e be e1 a5 07 be
       0.4703208 0.512296 -0.18632288 -0.13246872
000330 86 0a db 3e 47 6b da be c3 11 06 3f 94 89 ee be
       0.42781466 -0.4265997 0.5237085 -0.4658934
000340 ba 6f b1 3e 39 f5 05 3f 3b 93 b5 be 7d b9 e9 3e
       0.34655553 0.52327305 -0.3546389 0.4564933
000350 52 c2 ac 3e 6d d2 fb be d7 36 91 be 97 74 0e 3f
       0.33742005 -0.4918398 -0.28362152 0.5564665
000360 d6 ab f8 be c5 42 d1 be 29 02 ec 3e 9a 05 05 bf
       -0.485686 -0.40871254 0.46095398 -0.5196167
000370 d4 b1 06 bf 62 dc e5 be 21 ad 09 3f d3 4e 07 3f
       -0.52615094 -0.448947 0.537798 0.5285465
000380 36 b2 4b be 3d 4e fb be 1c 70 cf 3e 6f 5c 87 bd
       -0.19892201 -0.4908313 0.4051522 -0.06609427
000390 00 d1 e2 3e 44 e6 d8 3e 2a 9b fb 3e dd d7 ba be
       0.4430008 0.4236318 0.49141818 -0.36492816
0003a0 85 f3 f6 3e 23 12 e1 be 6b a1 05 3f 8d 9d 01 bf
       0.48232666 -0.4395915 0.5219943 -0.5063103
0003b0 28 af c8 be a2 ea fe be db 5a 41 be 1d 2e 00 3f
       -0.39196134 -0.49788386 -0.18882315 0.50070363
0003c0 15 ae f1 3e cc 46 80 be 1a f9 0f 3f c0 cc ed 3e
       0.47203127 -0.25054014 0.56239474 0.46445274
0003d0 c7 6b f3 3e 2c e6 aa be aa e9 05 3f f3 da d6 3e
       0.47543165 -0.33378732 0.5230967 0.4196392
0003e0 c0 92 c1 3e 25 e1 e7 3e 31 8b 09 3f 8d 63 ef be
       0.37807274 0.4528896 0.53728014 -0.4675564
0003f0 e2 d0 fd be 1e bb f0 3e a7 ab ac be 5a 5c bd 3e
       -0.49573427 0.4701776 -0.3372471 0.3698452

fc_out.bias f4 [2]
000000 da eb a0 3d 1a ad 89 3d
       0.07857485 0.0672247
