trained_models/trained_model.pt (torch, 70235 bytes, 5 tensors)

W_rec f4 [128, 128]
0	0x3d835c28	0.06414062
1	0x3d0de7b3	0.034644794
2	0x3d8f75f7	0.07004922
3	0x3d47bd5d	0.048764575
4	0xbe89787e	-0.2684974
5	0xbda1fb5d	-0.07909272
6	0x3e1937f7	0.14962755
7	0x3e26a22a	0.16272798
8	0xbe0257d3	-0.12728815
9	0x3cdcadf0	0.026938409
10	0xbe1dc868	-0.1540848
11	0x3db6b055	0.089203514
12	0xbe9448cb	-0.28961787
13	0xbe4a68c1	-0.19766523
14	0x3d255880	0.040367603
15	0xbd2d34ee	-0.042286806
16	0x3e1351a6	0.14386615
17	0xbdc56832	-0.09639014
18	0x3e2de535	0.16981967
19	0x3e86d7ee	0.26336616
20	0x3d763370	0.06010765
21	0xbe5dfd94	-0.21678764
22	0xbc5e3fe1	-0.013565035
23	0x3ddd254d	0.1079813
24	0x3e005906	0.1253396
25	0x3eb31d56	0.3498332
26	0x3de2f6ad	0.11082206
27	0xbe13688b	-0.14395349
28	0x3ea02f9a	0.31286317
29	0x3e9c99a2	0.30585963
30	0xbde63348	-0.1124025
31	0xbc7a9a6a	-0.015295604
32	0xbe20edc1	-0.15715696
33	0xbe9ee545	-0.31034294
34	0x3b17892e	0.0023122537
35	0xbe14db6e	-0.14536831
36	0x3d7646f2	0.060126252
37	0x3deba5ec	0.115062565
38	0xbdaddca2	-0.08489348
39	0xbd5488b0	-0.051888168
40	0xbc70baae	-0.014692945
41	0x3e6765b6	0.22597393
42	0x3da8f20d	0.082492925
43	0x3e7e2405	0.24818428
44	0xbe479290	-0.19489503
45	0x3dfad8e7	0.12248402
46	0x3c542f5b	0.012950744
47	0x3e784f1b	0.24248926
48	0x3e1c1ff5	0.15246566
49	0x3dcdf444	0.100563556
50	0xbe0ce576	-0.13759407
51	0x3dc8a63e	0.09797333
52	0x3d4259fa	0.04744909
53	0x3db95549	0.0904947
54	0x3e2e928d	0.17048092
55	0x3e2a77c6	0.16647252
56	0xbd9cf234	-0.07663384
57	0xbd42659a	-0.047460176
58	0x3c3d329f	0.011547714
59	0xbcfa8af9	-0.030583845
60	0x3ec3da74	0.38252604
61	0xbd093d89	-0.03350595
62	0x3d99ecc2	0.07515861
63	0xbc8e1e1d	-0.017348344
64	0xbd483428	-0.048877865
65	0x3dfc35b4	0.123149306
66	0xbd7ec51c	-0.062199697
67	0xbda20991	-0.07911981
68	0xbd4bd53d	-0.049763907
69	0xbc289041	-0.010288299
70	0xbe66fcc1	-0.22557355
71	0x3e0d407b	0.13794129
72	0x3d8acafa	0.06776996
73	0x3dfa7b2c	0.122305244
74	0x3da36a12	0.07979216
75	0xbdb126fb	-0.08650013
76	0x3df3a426	0.11896543
77	0xbec261da	-0.3796528
78	0x3ca7f143	0.020500785
79	0xbe609865	-0.21933134
80	0x3e2d8027	0.16943417
81	0x3d8417c8	0.064498484
82	0x3e32cd4a	0.17461124
83	0x3e601bef	0.21885656
84	0x3e52d8b2	0.20590475
85	0x3e4780bf	0.19482706
86	0xbe801c20	-0.25021458
87	0x3e1053d2	0.14094475
88	0xbcaf70f1	-0.02141616
89	0x3da62fcf	0.081145875
90	0x3d09bc54	0.03362687
91	0xbccd36bf	-0.025050519
92	0x3e92509d	0.28577128
93	0x3e19afd2	0.15008476
94	0x3da20d6f	0.079127185
95	0x3e438f66	0.19097671
96	0xbc1cde91	-0.009574548
97	0x3e0743f1	0.13209511
98	0x3d6a987a	0.05727432
99	0x3edac172	0.42725712
100	0xbdbc1bf8	-0.09185022
101	0x3e0788b8	0.13235748
102	0x3e650d47	0.22368346
103	0xbdae2bd7	-0.085044555
104	0x3d99a2f9	0.07501788
105	0x3e129738	0.14315498
106	0x3d089376	0.033343755
107	0x3dacf8cd	0.084458925
108	0x3da81553	0.08207192
109	0x3d1ccb80	0.03828001
110	0xbd527f47	-0.051390912
111	0x3e750aa5	0.23929842
112	0x3e2ddb32	0.16978148
113	0xbe06190b	-0.1309549
114	0x3dcc9dd9	0.099910446
115	0x3e2e4bfe	0.17021176
116	0x3d83368d	0.06406889
117	0x3e263545	0.16231258
118	0x3dcd2495	0.10016743
119	0x3d9a3d1c	0.07531187
120	0x3c95496f	0.018223492
121	0xbc0847b3	-0.008317876
122	0xbc7eb6c0	-0.015546501
123	0x3e6f9ec6	0.23400411
124	0x3e068259	0.13135661
125	0x3dae7560	0.08518481
126	0x3d813ca4	0.063103944
127	0x3e37fd32	0.1796768
128	0xbe42c149	-0.19019045
129	0x3d5a4ce5	0.05329599
130	0xbcf35b3b	-0.029706588
131	0x3e4c057c	0.19923967
132	0x3eb9cf52	0.36290985
133	0x3e663211	0.22480036
134	0xbe6008f4	-0.21878415
135	0x3bd7fcf4	0.0065914337
136	0x3eb621a6	0.35572547
137	0x3e79ed8c	0.24407023
138	0x3ea0f660	0.3143797
139	0x3dc77823	0.09739711
140	0x3e02ad44	0.12761408
141	0x3e981c6d	0.29709187
142	0x3b9937d1	0.0046758433
143	0x3f0bb6d8	0.5457587
144	0xbdc1a883	-0.09455969
145	0x3eb29cd4	0.34885275
146	0xbd50595c	-0.05086647
147	0xbe740c71	-0.23832871
148	0xbda4d4d4	-0.08048406
149	0x3db56a59	0.08858175
150	0x3ded6e95	0.115933575
151	0xbe68b8cd	-0.22726746
152	0x3e3c2a73	0.18375568
153	0xbea15a86	-0.31514376
154	0x3db122b3	0.086491965
155	0x3df0b7f1	0.11753834
156	0xbe0c2085	-0.1368428
157	0xbeba25ce	-0.36356968
158	0x3d1e3798	0.038627237
159	0x3e63942c	0.22224492
160	0x3e78cad6	0.24296126
161	0x3f095a0e	0.5365304
162	0x3e2ba1a7	0.16760884
163	0x3e4de243	0.20105843
164	0xbd3f5b53	-0.046717953
165	0x3bf63b06	0.0075143604
166	0xbd850042	-0.0649419
167	0xbd1bc17c	-0.038026318
168	0x3e168bb9	0.14701737
169	0xbe3583f9	-0.17726125
170	0x3d67b1ca	0.056566037
171	0xbdf45be7	-0.119315915
172	0x3ebd87c9	0.37017658
173	0x3da0f0bb	0.07858416
174	0x3d7a42a4	0.06109871
175	0xbee98e6e	-0.45616478
176	0xbeb5545b	-0.3541592
177	0x3ebe72e7	0.3719704
178	0x3e6397c7	0.22225867
179	0x3ea01489	0.31265667
180	0x3c876867	0.016529275
181	0xbe32aca2	-0.17448667
182	0xbd1da5df	-0.038488265
183	0xbe530f3b	-0.20611279
184	0x3e560146	0.20898923
185	0xbe17c758	-0.14822137
186	0xbe2ea223	-0.17054038
187	0x3e926ceb	0.28598723
188	0xbefa8ce9	-0.4893563
189	0x3befd0f0	0.0073186085
190	0xbdb14a87	-0.08656793
191	0x3e4aa814	0.19790679
192	0xbd9874e7	-0.07444172
193	0xbe613dd1	-0.21996237
194	0xbca787d2	-0.020450506
195	0x3e813273	0.25233802
196	0x3e82032f	0.25393054
197	0x3e37c3ad	0.17945738
198	0x3e3ca878	0.1842364
199	0x3ba0fdb8	0.004913058
200	0xbced5c9d	-0.028974826
201	0x3e06bc12	0.1315768
202	0x3d87cf0d	0.06631289
203	0xbe4c6b7e	-0.1996288
204	0xbed4321a	-0.41444474
205	0x3f1695fb	0.588226
206	0xbe93040e	-0.2871403
207	0x3e35b0fa	0.17743292
208	0xbe7ba865	-0.24575956
209	0x3e81d4c5	0.25357643
210	0xbe06739d	-0.1313004
211	0xbe72a0b4	-0.23694116
212	0xbe4b01d2	-0.19824913
213	0xbe79f072	-0.24408129
214	0x3eb243d5	0.34817377
215	0xbd552410	-0.052036345
216	0x3ec5c261	0.38624862
217	0x3e2837f5	0.16427596
218	0x3de7368e	0.11289702
219	0x3e9e9f7d	0.30981055
220	0xbe01355c	-0.12618011
221	0xbe01bf28	-0.12670577
222	0x3d470acd	0.048594285
223	0xbe6fa137	-0.23401342
224	0x3cbbf2f9	0.022943007
225	0xbe3e573c	-0.18587965
226	0x3aec8922	0.001804624
227	0xbe843b4f	-0.258265
228	0x3e74ba11	0.23899104
229	0xbddee0ef	-0.108827464
230	0xbeac7893	-0.3368574
231	0x3c48795a	0.012235964
232	0xbdad15cd	-0.08451424
233	0x3e1da65a	0.1539549
234	0x3d98224e	0.07428418
235	0x3e3404d7	0.17579971
236	0x3dd28039	0.10278363
237	0xbd4d617f	-0.050141808
238	0xbdae27dc	-0.08503696
239	0xbebdfbce	-0.37106174
240	0x3db1be85	0.08678917
241	0x3e175020	0.14776659
242	0xbcb3c148	-0.02194275
243	0xbe9b9ec0	-0.30394554
244	0x3ddf0a94	0.108906895
245	0xbe0e5b15	-0.13901933
246	0xbea2ddc8	-0.3180983
247	0x3e8c14df	0.27359673
248	0x3e2e2c89	0.17009176
249	0x3e23354d	0.15938301
250	0x3d171968	0.036889464
251	0xbe98c2a0	-0.29835987
252	0xbe993570	-0.29923582
253	0xbcbabade	-0.022794183
254	0x3e3cf1b0	0.18451571
255	0xbe0449ff	-0.12918852

W_in f4 [3, 128]
0	0xbf82ceec	-1.0219398
1	0xbf1c9e52	-0.6117908
2	0x3e97641f	0.29568574
3	0xbeec529c	-0.46156776
4	0xbc192854	-0.009347994
5	0xbf35cf57	-0.710195
6	0xbf00cb95	-0.5031064
7	0x3f01c1cb	0.5068633
8	0xbf409bb2	-0.7523757
9	0x3f48a122	0.7837087
10	0x3dfa0fc3	0.122100376
11	0x3f299b9d	0.6625307
12	0xbe4e8d21	-0.20171024
13	0xbce07b95	-0.027402679
14	0x3ccd6e99	0.025077151
15	0xbf52ad86	-0.82296026
16	0x3f15ae4a	0.5846907
17	0xbf432ad3	-0.7623722
18	0x3e752c5f	0.23942707
19	0xbed777cb	-0.42083582
20	0xbcfc7d5a	-0.030821491
21	0xbef99a10	-0.48750353
22	0xbf2794e6	-0.65461576
23	0xbf46aca2	-0.77607167
24	0x3eda1855	0.4259669
25	0xbe94d536	-0.29068917
26	0x3f740d71	0.9533301
27	0x3e176158	0.14783227
28	0xbf0c7257	-0.5486197
29	0xbedef12c	-0.43543375
30	0x3f972118	1.1806974
31	0xbe7afae6	-0.24509773
32	0x3ebee1c7	0.3728163
33	0xbe93dd8c	-0.28879964
34	0x3ecde377	0.40212604
35	0xbf02d102	-0.5110017
36	0xbfbbb92c	-1.4665885
37	0x3f077a8f	0.52921385
38	0x3ecd68eb	0.4011911
39	0x3f213e5d	0.62985784
40	0x3e90fa53	0.28315982
41	0xbf8e7826	-1.1130416
42	0xbf123684	-0.57114434
43	0x3ecefbb6	0.40426415
44	0xbe0ec5de	-0.13942668
45	0x3eb1c483	0.3472024
46	0x3e32d8b3	0.17465477
47	0xbf980192	-1.1875479
48	0xbf4455dd	-0.76693517
49	0xbf41f01a	-0.7575699
50	0x3e56df39	0.2098359
51	0x3dc8c6fc	0.09803578
52	0x3f0899ca	0.53359663
53	0xbf030af5	-0.51188594
54	0xbfac3d52	-1.3456213
55	0xbf2f705e	-0.68530834
56	0x3f4c4bb8	0.7980304
57	0xbeddaed9	-0.4329746
58	0xbe4387d3	-0.19094782
59	0x3f728948	0.94740725
60	0xbe634fb5	-0.22198375
61	0x3f4d00f2	0.8007957
62	0x3f267982	0.65029156
63	0x3e2212ce	0.15827486
64	0x3e81ffba	0.25390416
65	0x3e025f05	0.1273156
66	0x3d4f0a9a	0.05054722
67	0xbebe40aa	-0.3715871
68	0x3f901fa3	1.1259655
69	0x3f605ea4	0.8764441
70	0xbf913eac	-1.1347251
71	0x3ecb4dc1	0.3970776
72	0x3f08f3af	0.5349683
73	0x3e805992	0.25068337
74	0x3f1ec201	0.62014776
75	0x3f3b1702	0.7308198
76	0xbe7b0e8b	-0.24517266
77	0xbf0a97d9	-0.5413795
78	0xbda50f24	-0.080595285
79	0xbe008395	-0.12550195
80	0xbf69cc5f	-0.9132747
81	0xbf255baa	-0.64592993
82	0xbed24182	-0.41065603
83	0xbf42748f	-0.75959104
84	0xbf3fe3d2	-0.74957
85	0xbf01128d	-0.5041893
86	0xbf44335d	-0.76640874
87	0x3f8db693	1.1071342
88	0xbf96f45a	-1.179332
89	0x3cb08def	0.021552054
90	0x3ef54670	0.47905302
91	0xbeb088bd	-0.34479323
92	0xbef83fa3	-0.4848605
93	0x3f2f74c1	0.6853753
94	0x3ef65e0b	0.48118624
95	0xbe10792a	-0.1410872
96	0x3f44aab5	0.7682298
97	0xbe061a0a	-0.1309587
98	0xbf38907c	-0.72095466
99	0xbf187c46	-0.59564626
100	0xbee80cee	-0.45322365
101	0xbda01266	-0.07816009
102	0x3e00ffa9	0.12597527
103	0x3e9716c2	0.2950955
104	0x3ea102ac	0.3144735
105	0x3ec4ea9f	0.38460252
106	0x3e527a30	0.20554423
107	0x3ebb77b4	0.36614764
108	0x3e81624c	0.25270307
109	0x3e0326f6	0.12807831
110	0x3e70a511	0.23500468
111	0xbf227c1d	-0.6347063
112	0x3e29a6cc	0.16567534
113	0x3e6cf529	0.23140396
114	0xbf3351bb	-0.70046586
115	0xbf13cc98	-0.5773406
116	0xbeec8e42	-0.46202284
117	0xbe5ee897	-0.21768413
118	0xbe34a3d6	-0.17640623
119	0xbf53f10d	-0.8278969
120	0x3ecdb78e	0.40179104
121	0x3e068463	0.13136439
122	0x3ef8d1d0	0.48597574
123	0xbe28ed23	-0.1649671
124	0xbe15e797	-0.14639126
125	0x3ee827ef	0.45342967
126	0x3f6b01b0	0.9179945
127	0xbdf2f901	-0.118639
128	0xbeff16af	-0.49821994
129	0xbe6a54db	-0.22883932
130	0x3f58e9a8	0.8473153
131	0xbe3656e6	-0.17806587
132	0x3f07d856	0.5306448
133	0x3f782f84	0.96947503
134	0xbf68431c	-0.907274
135	0xbfe1de33	-1.7645935
136	0x3fb08d39	1.3793098
137	0x3f8d0738	1.1017828
138	0x3f18b6a8	0.5965371
139	0xbecbab3b	-0.39779076
140	0x3fa1e304	1.2647405
141	0x3fa46337	1.2842778
142	0xbf122ac6	-0.5709652
143	0x40168d75	2.3523839
144	0xbf7d49bd	-0.9894064
145	0x3f4580d9	0.7714973
146	0xbe63d24c	-0.2224819
147	0xbf42b24d	-0.76053315
148	0xbf332fe7	-0.6999497
149	0x3f20abce	0.62762153
150	0x3ea29c6d	0.31759968
151	0xbef1192e	-0.47089523
152	0x3fbdbd31	1.4823362
153	0xbf123cc4	-0.5712397
154	0xc00e78a4	-2.2261133
155	0x3e66a609	0.22524275
156	0xbf5bd621	-0.8587361
157	0xbfb9191f	-1.4460791
158	0xbf962374	-1.172957
159	0x3de86ecb	0.11349257
160	0x3fd39d2b	1.6532339
161	0x3f8498d8	1.0359144
162	0x3faa9416	1.3326442
163	0x3f29f9c2	0.66396725
164	0xbed39c49	-0.41330174
165	0x3fa2e27a	1.2725365
166	0x3fa697f9	1.3015128
167	0x3fbce4dd	1.4757344
168	0x3e9287e9	0.28619316
169	0xbf088983	-0.53334826
170	0x3dfff860	0.12498546
171	0xbfb4f5f9	-1.4137565
172	0x3f9b43b5	1.2130038
173	0xbf660537	-0.8985171
174	0x3fb80780	1.4377289
175	0xbf07c8e2	-0.530409
176	0xbec9b5e2	-0.39396578
177	0x3fa87f02	1.316376
178	0x3f7ecfcc	0.9953582
179	0x3ea20ffb	0.31652817
180	0x3f16d602	0.589203
181	0xbe53be13	-0.20677976
182	0xbd8e74fa	-0.06955905
183	0xbe71f2a6	-0.2362772
184	0x3fb5511a	1.4165375
185	0x3d366f53	0.04453976
186	0x3dbabb2f	0.09117734
187	0x3fbe1ab6	1.4851902
188	0xbfd245e1	-1.6427575
189	0x3f8a2c82	1.0794833
190	0xbf4aa0d2	-0.7915164
191	0x3fe25038	1.7680731
192	0xbf413a50	-0.754796
193	0xbf763b3f	-0.9618415
194	0x3f4a1423	0.78936976
195	0x3f873edf	1.0566062
196	0x3f9ad25d	1.2095448
197	0x3ffe45e4	1.9865079
198	0x3f351957	0.7074179
199	0x3f570309	0.83989006
200	0x3f44426d	0.7666386
201	0x3f691d5f	0.9106044
202	0x3f0c0691	0.5469752
203	0xc0093a87	-2.1441972
204	0xbfabe35b	-1.3428758
205	0x3f9812b4	1.1880708
206	0xbfc8c3db	-1.568477
207	0x3fd36bdd	1.6517292
208	0xbfae9dfa	-1.3641961
209	0x3f49190b	0.7855384
210	0xbfad700f	-1.3549823
211	0xbff024ae	-1.8761194
212	0xbf8ffedc	-1.1249652
213	0xbfedea85	-1.8587195
214	0x3eb2a6a4	0.34892762
215	0xbf537afe	-0.82609546
216	0x3f4296f2	0.76011574
217	0x3f9c0d8c	1.2191634
218	0xbfacf339	-1.3511726
219	0x3fb8e979	1.444625
220	0xbf3fa340	-0.74858475
221	0xbf9dc489	-1.2325603
222	0x3f96676c	1.1750312
223	0xbea21218	-0.3165443
224	0x3f7e703c	0.99390006
225	0xbfbe8071	-1.4882947
226	0xbeef7db6	-0.46775597
227	0xbfabd0f5	-1.3423144
228	0x3ed19901	0.40937045
229	0xbfeb448e	-1.8380296
230	0xbf7ba35a	-0.9829613
231	0x3cb15c75	0.021650532
232	0xbecf08d9	-0.40436438
233	0x3f898946	1.0745018
234	0x3e83d700	0.2574997
235	0x3e81a0eb	0.25318083
236	0xbf8b8666	-1.090039
237	0xbea9925b	-0.33119473
238	0xbf8eac20	-1.1146278
239	0xbf35ce7e	-0.7101821
240	0x3eaac90a	0.33356506
241	0x3fca554d	1.5807282
242	0xbe461513	-0.19343977
243	0xbec98e34	-0.39366305
244	0xbe26d3a1	-0.16291668
245	0xbe529067	-0.20562898
246	0xbf98f48a	-1.1949627
247	0x3f993cb9	1.1971656
248	0x3fb0152d	1.3756462
249	0x3ed5fbd9	0.41793707
250	0xbda43fbf	-0.08019971
251	0xbf0ce5d7	-0.5503821
252	0xbfd53624	-1.6657147
253	0xbf853c8b	-1.0409101
254	0x3fc08b0e	1.5042436
255	0xbf680942	-0.90639126

b_rec f4 [128]
0	0x3cf79665	0.03022308
1	0x3d896b7e	0.06709956
2	0x3c853885	0.016262302
3	0x3d4700bd	0.04858469
4	0x3cc36c46	0.02385534
5	0x3d1ba630	0.038000286
6	0x3c80cc90	0.015722543
7	0xbc2419e3	-0.0100159375
8	0x3b844376	0.0040363623
9	0xbc28967a	-0.010289783
10	0x3ca32cad	0.019918764
11	0x3bb513a5	0.0055260235
12	0xbbdf0679	-0.0068061915
13	0xbb11d785	-0.0022253704
14	0x3be81fdc	0.007083876
15	0xbb31c09f	-0.0027122868
16	0x3b05e46f	0.0020430346
17	0xbc3d5899	-0.011556768
18	0x3d04dc85	0.032436866
19	0xbc7482d1	-0.014923767
20	0x3d4529fb	0.04813574
21	0x3d1bb4ad	0.038014103
22	0x3d9e0d6f	0.07717406
23	0x3d5dd8fd	0.054162014
24	0x3c8d9530	0.017283052
25	0xbd0c7219	-0.0342885
26	0x3bb7b333	0.005606079
27	0x3cf6a86f	0.030109612
28	0x3d769749	0.06020287
29	0x3c4c0862	0.0124531705
30	0xbd114080	-0.035461903
31	0x3cba3418	0.022729918
32	0x3cc67677	0.02422641
33	0xbd0020ac	-0.03128116
34	0x3cebfec4	0.028808005
35	0x3d1ef1a4	0.038804665
36	0x3d5fe707	0.054663684
37	0x3bd29cdf	0.006427392
38	0x3cd561cf	0.026047615
39	0x3bd8f891	0.0066214283
40	0xbb96e4d7	-0.0046049166
41	0x3ce359d0	0.027752787
42	0x3d417bf0	0.047237337
43	0x3cd1e411	0.025621446
44	0xbc5e1742	-0.01355535
45	0x3cc81603	0.024424559
46	0x3cbd91ec	0.02314087
47	0xbced35a5	-0.028956244
48	0xbce9dda8	-0.028548077
49	0x3bd0149b	0.0063501126
50	0x3ca3b360	0.019982994
51	0x3d0105d4	0.0314997
52	0x3cb5ceac	0.022193275
53	0x3d5bfc3f	0.053707357
54	0x3d90dff7	0.07073968
55	0x3c094dab	0.008380334
56	0x3c0726c0	0.008248985
57	0x3d24a02a	0.040191807
58	0x3d8344a5	0.06409577
59	0x3b800988	0.003907386
60	0xbc944bf2	-0.01810262
61	0xbbef70ee	-0.0073071634
62	0x3b232b7d	0.0024897747
63	0x3cc031de	0.023461279
64	0x3b961654	0.0045802984
65	0x3cd7f7be	0.02636325
66	0x3c9f71d2	0.019463453
67	0x3c7c96dc	0.015416827
68	0x3d1f7186	0.038926624
69	0x3bf501fa	0.0074770423
70	0x3cb4c19c	0.022064976
71	0x3ce457e5	0.027873943
72	0x3d0c5eb3	0.03427
73	0x3cfd8506	0.03094722
74	0x3c5c833c	0.013459023
75	0x3c5728bb	0.0131322695
76	0xbc577332	-0.013150023
77	0xbc9d5433	-0.019205188
78	0x3cef0472	0.029176924
79	0xbb9a1a4a	-0.004702841
80	0xbccbcf56	-0.024879139
81	0x3c3bcff1	0.011463151
82	0x3d02adfa	0.0319042
83	0xbc576892	-0.01314749
84	0x3ccab181	0.024742844
85	0xbc37dc28	-0.011221923
86	0x3b1f89d3	0.0024343624
87	0xbbf74d14	-0.00754703
88	0x3d28204a	0.04104642
89	0x3ccecd16	0.025244277
90	0x3a7b24e3	0.00095803867
91	0x3bd2c1b4	0.0064317826
92	0xba8d8367	-0.0010796607
93	0xbbe7b226	-0.0070707975
94	0x3c7d7e1f	0.015471964
95	0x3cfdbf7d	0.030975098
96	0x3c3bc574	0.011460651
97	0xbc9c1bc2	-0.019056205
98	0x3d2df020	0.04246533
99	0xbcd60e7f	-0.02612996
100	0x3cbeab16	0.02327494
101	0x3d4eac68	0.05045739
102	0x3d070fb6	0.032973967
103	0x3cbb0386	0.022828829
104	0x3c5ffa63	0.013670537
105	0x3ca3e0ce	0.020004656
106	0x3d0fecf3	0.03513808
107	0x3c5b6dd5	0.013392885
108	0x3c7b69b2	0.015345024
109	0x3d2c8e42	0.042127855
110	0x3ba383e0	0.004990086
111	0xbc658a43	-0.014010015
112	0x3d2a6999	0.041604612
113	0x3d1159a8	0.035485893
114	0x3cbc89f4	0.023015
115	0x3bcec16e	0.0063096797
116	0x3d2a495c	0.041573867
117	0x3d27f0ff	0.041001316
118	0xbd16f348	-0.036853105
119	0x3d2b6ed5	0.041853745
120	0xbbb27df9	-0.005447146
121	0x3d250b65	0.04029407
122	0xbaa23621	-0.0012375751
123	0xbc1be10f	-0.009514107
124	0xbafb5129	-0.0019173968
125	0x3ccffe39	0.025389777
126	0x3b805519	0.0039163944
127	0xbd177910	-0.03698069

fc_out.weight f4 [2, 128]
0	0xbec5eb4c	-0.3865608
1	0x3ef84263	0.4848815
2	0x3eb5b211	0.35487416
3	0xbedcb1fa	-0.43104535
4	0x3eef0f31	0.46691278
5	0x3edec8fe	0.4351272
6	0xbf0f883b	-0.56067246
7	0xbe8c784d	-0.27435532
8	0x3edad667	0.427417
9	0xbd87b102	-0.066255584
10	0x3eff398f	0.498486
11	0xbeb88aaf	-0.36043307
12	0x3f0fd6e5	0.5618728
13	0x3ef88ecb	0.48546442
14	0xbe259538	-0.16170204
15	0x3f01e97c	0.50746894
16	0xbedc317f	-0.43006513
17	0x3edbfa4b	0.42964396
18	0xbee84a62	-0.4536925
19	0xbed999b7	-0.42500088
20	0xbecc1b3c	-0.39864528
21	0x3f061904	0.5238192
22	0xbeef239b	-0.46706852
23	0xbeec1062	-0.4610625
24	0x3eeec3b7	0.46633694
25	0xbed1624f	-0.40895316
26	0xbed8e450	-0.4236169
27	0x3f012f91	0.50463206
28	0xbf046b25	-0.5172599
29	0xbef9972b	-0.48748145
30	0xbe662b1d	-0.22477384
31	0x3eebe812	0.46075493
32	0x3f0282fb	0.5098111
33	0x3f09e249	0.5386091
34	0x3ee83877	0.4535558
35	0x3ecbfd1f	0.39841554
36	0xbf0552d9	-0.5207954
37	0x3ed7498c	0.420483
38	0x3ebb360b	0.3656467
39	0x3e89f3ef	0.2694392
40	0x3dcf6935	0.101274885
41	0xbeebef5d	-0.46081057
42	0x3ef18a51	0.4717584
43	0xbedf39f1	-0.43598893
44	0x3f009e7a	0.50241816
45	0xbc84d331	-0.016213985
46	0x3ee82878	0.45343375
47	0xbed61155	-0.41810098
48	0xbedc82e6	-0.43068618
49	0x3efeef34	0.49791873
50	0x3edc5fee	0.4304194
51	0x3efdbc51	0.49557737
52	0x3eb9b34c	0.36269605
53	0xbed9afdc	-0.42516983
54	0xbed26e9e	-0.4110002
55	0xbeeda186	-0.46412295
56	0x3ea3c2c3	0.3198453
57	0xbef70642	-0.48246962
58	0xbed37c1c	-0.41305625
59	0x3e8c1147	0.27356932
60	0xbf0c9ca1	-0.54926497
61	0x3e644e42	0.22295478
62	0xbeb6d60a	-0.35710174
63	0x3ed8eb2a	0.42366916
64	0xbed99c64	-0.4250213
65	0xbeda274a	-0.426081
66	0x3eda4f9e	0.42638868
67	0x3f05951d	0.52180654
68	0x3e2322e7	0.15931283
69	0x3ea764db	0.32694134
70	0x3ee4776f	0.4462237
71	0x3ecf2faa	0.40466052
72	0x3eca2733	0.39483032
73	0x3eb78fa4	0.35851777
74	0x3ebeaea3	0.37242612
75	0xbedba4c7	-0.42899153
76	0xbedf9ca1	-0.43674186
77	0x3efc7926	0.4931118
78	0xbf0c5e8b	-0.5483176
79	0x3f086401	0.53277594
80	0xbf1a3e47	-0.6025128
81	0x3ec30734	0.38091433
82	0xbf0716b8	-0.5276904
83	0xbf10aab3	-0.56510466
84	0xbed35ed7	-0.41283295
85	0xbf101d2d	-0.5629452
86	0xbe5c9d25	-0.21544321
87	0xbeb44e7d	-0.35216132
88	0x3ef5e10c	0.4802326
89	0x3eec4258	0.46144366
90	0xbebee3f9	-0.37283304
91	0x3f074518	0.52839804
92	0xbf022a19	-0.50845486
93	0xbedd441c	-0.43216026
94	0x3ed4153e	0.41422457
95	0xbf06b0d5	-0.52613574
96	0x3eed9f10	0.46410418
97	0xbf0b6d7d	-0.5446394
98	0xbecef05a	-0.4041775
99	0xbf09fd7b	-0.53902406
100	0x3ec970ca	0.39343864
101	0xbefc05bf	-0.49223134
102	0xbef52b27	-0.47884485
103	0xbed45412	-0.4147039
104	0xbee6e33a	-0.45095235
105	0x3ee17aed	0.44039097
106	0x3f063d79	0.5243755
107	0xbda2e80d	-0.079544164
108	0xbeb1c6bb	-0.34721932
109	0xbf0469c5	-0.5172389
110	0xbedf240b	-0.43582186
111	0xbee525e3	-0.44755468
112	0x3eeed977	0.46650288
113	0x3edbd76f	0.429378
114	0xbe9a0c3c	-0.3008746
115	0xbf0ac89d	-0.5421236
116	0x3eff0fe0	0.498168
117	0xbed321c1	-0.4123669
118	0xbebe2f97	-0.37145683
119	0x3ef55a29	0.4792035
120	0x3ef1b4c1	0.47208217
121	0x3edf19d8	0.43574405
122	0xbeac8be7	-0.33700487
123	0xbf03fed3	-0.51560706
124	0xbf11a874	-0.56897664
125	0xbe51fad0	-0.20505834
126	0x3e90b124	0.28260148
127	0xbef13980	-0.47114182
128	0x3f071631	0.52768236
129	0xbf028f04	-0.50999475
130	0xbea63418	-0.3246162
131	0x3ee89c72	0.45431858
132	0xbed0c8d1	-0.4077821
133	0xbeebe65e	-0.46074194
134	0x3f10ab70	0.5651159
135	0x3ebd1c3d	0.36935607
136	0xbf10eb34	-0.5660889
137	0x3dcd84d2	0.10035099
138	0xbee7a6c0	-0.45244408
139	0x3ed53fb6	0.4165017
140	0xbede529d	-0.43422404
141	0xbf04db4e	-0.5189713
142	0x3e2d3cb2	0.16917685
143	0xbed438a7	-0.41449472
144	0x3ecea652	0.40361267
145	0xbf036c9e	-0.5133761
146	0x3f05f365	0.52324516
147	0x3f05873b	0.5215947
148	0x3ee5b809	0.4486697
149	0xbef184b5	-0.4717156
150	0x3ebf6c01	0.37387088
151	0x3f05a78c	0.5220878
152	0xbeec9cca	-0.4621337
153	0x3ed20ee2	0.4102698
154	0x3ec9350d	0.39298287
155	0xbede9b1e	-0.4347772
156	0x3ed63e69	0.4184449
157	0x3efb7d7d	0.49119177
158	0x3e35bb6e	0.1774728
159	0xbefbd282	-0.49184042
160	0xbed119e0	-0.40840054
161	0xbee9a4a2	-0.45633417
162	0xbefc883d	-0.49322692
163	0xbf02a70a	-0.5103613
164	0x3ec0bf05	0.37645736
165	0xbedd7822	-0.43255717
166	0xbef746a1	-0.48296073
167	0xbed0a327	-0.40749475
168	0xbd81ab47	-0.06331497
169	0x3ec1e0fc	0.37866962
170	0xbef61ef8	-0.48070502
171	0x3eef32a7	0.46718332
172	0xbf083242	-0.5320169
173	0xbd321d40	-0.043484926
174	0xbee7f0cd	-0.45300904
175	0x3f043e49	0.5165754
176	0x3edf5a72	0.43623692
177	0xbf07a96a	-0.5299288
178	0xbf059b0f	-0.52189726
179	0xbf0853b8	-0.53252745
180	0xbecedf63	-0.40404806
181	0x3ef12714	0.47100127
182	0x3f01f705	0.50767547
183	0x3eef82b0	0.46779394
184	0xbeb77490	-0.35831118
185	0x3ef284a5	0.47366825
186	0x3ef9f310	0.48818254
187	0xbe434d4d	-0.19072457
188	0x3ee880c7	0.4541075
189	0xbeb65927	-0.35614893
190	0x3ea10359	0.31447867
191	0xbebdd5f7	-0.37077305
192	0x3ed196ce	0.40935367
193	0x3f081db1	0.53170305
194	0xbea7fc09	-0.32809475
195	0xbef9b356	-0.48769635
196	0xbe4b7eeb	-0.19872634
197	0xbeca477b	-0.3950766
198	0xbf06195a	-0.52382433
199	0xbea0c861	-0.31402877
200	0xbea79491	-0.32730535
201	0xbee7bcee	-0.4526133
202	0xbed54660	-0.41655254
203	0x3f00cf4d	0.50316316
204	0x3f0652b5	0.5246995
205	0xbef4277c	-0.47686374
206	0x3f02214b	0.5083205
207	0xbee92ec3	-0.4554349
208	0x3eee72d5	0.46571985
209	0xbefa0f14	-0.4883963
210	0x3ee01f83	0.43774042
211	0x3eda4019	0.42627028
212	0x3f083081	0.5319901
213	0x3ee5c27f	0.4487495
214	0x3e91da22	0.28486735
215	0x3ea8ac1d	0.32943812
216	0xbed40455	-0.41409555
217	0xbebe81ad	-0.3720831
218	0x3eae1a1d	0.34004298
219	0xbef26cbf	-0.47348592
220	0x3ee7777a	0.4520834
221	0x3ee59cdc	0.44846237
222	0xbeda084c	-0.42584455
223	0x3ed7ce6e	0.4214968
224	0xbec16433	-0.37771758
225	0x3efeb3a8	0.49746442
226	0x3eeb605d	0.45971957
227	0x3ed68317	0.4189689
228	0xbeff5211	-0.498673
229	0x3ec3dddd	0.38255206
230	0x3f079a77	0.5297007
231	0x3ed3a0fe	0.41333765
232	0x3ebf503d	0.37365904
233	0xbea1784d	-0.31537095
234	0xbeb9da06	-0.3629915
235	0x3d06d672	0.032919355
236	0x3e9f1d74	0.31077158
237	0x3eeef228	0.46669126
238	0x3ec0e40c	0.37673986
239	0x3eff9fbf	0.49926564
240	0xbed18572	-0.40922123
241	0xbef88c16	-0.48544377
242	0x3ec7ff43	0.39061937
243	0x3ee84725	0.4536678
244	0xbec50216	-0.38478154
245	0x3ee1d141	0.4410496
246	0x3efad925	0.48993793
247	0xbf0339f4	-0.51260304
248	0xbef11240	-0.47084236
249	0xbf0050f3	-0.5012352
250	0x3e92ed0e	0.28696483
251	0x3ed9a02c	0.42505014
252	0x3f0ff899	0.56238705
253	0x3ea1ea52	0.31624085
254	0xbea85cf9	-0.32883433
255	0x3f0b0751	0.5430804

fc_out.bias f4 [2]
0	0x3c9947c3	0.018710976
1	0x3c9cacbf	0.01912534
