trained_models/trained_model.pt (torch, 70235 bytes, 5 tensors)

W_rec f4 [128, 128]
00000000: c4cf 553f 8e55 313f deb2 a13f d9ff 13be
00000010: 840a 71bf b593 563f 9134 4d3f 4a8e 873f
00000020: fe98 863f fac5 7cbf ef67 ae3f 740f 883f
00000030: 377f 79bf be40 843f d329 3cbf 7eb9 5abf
00000040: 8657 403f e734 693f a480 863f 47aa e2be
00000050: 81a8 4d3f 7a29 d7be 9ce6 79bf e7b8 8b3f
00000060: c552 38bf 5e5a 18bf 4bf5 7cbf 95dc 8e3f
00000070: cb45 713f 2e93 37bf b6be 5bbf d53f 803f
00000080: 88fa 803f 5a11 443f 4294 963f cbcd 69bf
00000090: 9dc5 5fbf 8967 72bf 0882 8f3f 9202 1c3f
000000a0: c0aa 6e3f d8ca 983f cc95 28bf ca12 8dbf
000000b0: 6843 983f 884c 863f ce2f 1abf 38d9 a8be
000000c0: a419 303f 5130 1fbf d667 93bf 7a14 e6be
000000d0: 5c08 563f 9c08 ad3c ec97 50bf 57f7 773f
000000e0: a06f 02bf 704d 6d3f d8b6 743f 1818 7dbf
000000f0: 7378 863f 23d9 3bbf d181 4c3f a84e 803f
00000100: e75b 49bf 5e02 17be d9ed 9dbf bdd1 7dbf
00000110: bfa6 763d 15db 6a3e cf88 1f3f cd77 783f
00000120: 91a7 c8be 7e48 9a3f b050 9b3f 20ee 6e3f
00000130: 6157 00be 5043 8f3f 7195 573f 85ad 6ebf
00000140: 9414 71bd 9146 5a3f 4407 88bf d8d5 893f
00000150: 4e29 8c3f 5150 833f 4690 38bf b038 7d3f
00000160: 132e 81bf 9683 7e3f 1c10 843f ac6d 843f
00000170: 930b 593f 54fa 593f cc72 7a3e da02 1bbf
00000180: 2dfb 4b3f 2c26 87bf 97e1 633f 4ab8 6fbf
00000190: df18 3e3f 1f62 79bf 2e1a 713f b910 65bf
000001a0: b0e2 963f eac8 b4be 5cc3 76bf 45f0 8b3f
000001b0: dec6 39bf 1bfc 2ebf c36c 803f a134 85bf
000001c0: eab4 64bf 6a25 ffbe 1c37 9a3f e984 593f
000001d0: b598 913f 0e75 863f 23fa 483f a0de 8f3f
000001e0: 9e5d 8e3f 7532 06bf b943 6f3f 20f0 60bf
000001f0: abd0 3fbd fa1e 6c3f 0196 4e3f 633b aabe
00000200: 75aa 2e3f d19f 423f 2e4c 8a3f ac47 6cbe
00000210: 6ea2 8abf 5d5f 453f 568d 5a3f fce9 663f
00000220: 431f 8c3f f00b 67bf de97 8b3f b4e6 383f
00000230: 313a 75bf 648c 4b3f 08f4 01bf b4c1 3abf
00000240: d0de 493f 9b41 633f 1308 743f c74e a4be
00000250: 9620 7f3f d832 72be e78c 4fbf b5f7 6f3f
00000260: 8b6e cbbe d815 09bf 100e 91bf e407 873f
00000270: 4bcf 493f 903d 13bf 18a7 2dbf 7bc3 4d3f
00000280: b59b 823f d190 263f 9169 623f 8f85 50bf
00000290: 8ce4 20bf 38c1 61bf 9664 783f 7b2f 3c3f
000002a0: aaa0 853f b9dd 513f 29c2 23bf 400a 85bf
000002b0: 0f4f 663f 9c6d 603f d907 b1be f1ea aabe
000002c0: 90e7 4a3f 6585 f1be 3fd0 63bf 82f4 aabe
000002d0: 63a1 583f 63da f1bc 5101 23bf 8aaf 8b3f
000002e0: d0cf efbe 643b 833f 2887 633f 0a19 1abf
000002f0: a6e9 843f 2164 a5be 3b6b 5c3f 73f8 533f
00000300: 92b8 3abf 8bf5 82be 209d 87bf 3787 57bf
00000310: c3db 003e 45aa 113d 771e ca3e b85b 933f
00000320: 48d6 abbe d3e8 863f ee20 783f 32fa 5d3f
00000330: 067b bfbd eba2 643f c247 083f de48 70bf
00000340: 2992 4bbd 7453 683f 9e30 85bf 2873 353f
00000350: 221b 8d3f 9681 4f3f f098 11bf 02ac 7c3f
00000360: c2c2 35bf 5208 393f 5b23 533f 10f7 7a3f
00000370: 02a7 423f fce5 233f df60 7c3c 4a8b d0be
00000380: 8660 3d3f 220e 78bf e758 6e3f 9822 3fbf
00000390: 3908 413f 2417 58bf 41e8 483f 659a 5abf
000003a0: 10a9 823f 9ac7 33be de30 63bf c6f8 6e3f
000003b0: 0f0b 3cbf 36b3 27bf 67f2 823f 6578 75bf
000003c0: 7764 34bf f4fc 15bf f1fd 873f ffa4 7a3f
000003d0: 4c1a 8d3f cbe3 7f3f f64e 313f 2354 873f
000003e0: d031 5a3f c678 a3be 1c58 7d3f c80d 60bf
000003f0: 0ff2 07be f99c 643f 56db 243f cb8a 63be
0.8352015 0.6927117 1.2632711 -0.14453067 -0.9415667 0.83819133 0.80158335 1.0590298
1.051544 -0.9873959 1.3625468 1.0629716 -0.9745974 1.0332258 -0.7350132 -0.8543929
0.7513355 0.9109635 1.0508008 -0.44270536 0.8033524 -0.42023832 -0.97617507 1.0915803
-0.72001296 -0.5951289 -0.9881179 1.1161066 0.9424712 -0.71708953 -0.85837877 1.001948
1.0076456 0.76588976 1.1763995 -0.9132964 -0.8741091 -0.9468923 1.1211557 0.6094142
0.93229294 1.1936903 -0.6585357 -1.1021359 1.1895571 1.0492105 -0.60229194 -0.32978225
0.68789124 -0.621831 -1.1516063 -0.44937497 0.83606505 0.02112227 -0.81481814 0.96861786
-0.50951576 0.92696285 0.955915 -0.9886489 1.0505508 -0.733782 0.79885584 1.0024004
-0.78655857 -0.14746997 -1.233821 -0.9914816 0.060217615 0.22935136 0.6231813 0.970578
-0.39190343 1.2053373 1.2133999 0.933321 -0.12533332 1.1192417 0.84212404 -0.9323352
-0.058857515 0.85263926 -1.0627217 1.0768385 1.0950105 1.0258886 -0.72095144 0.98914623
-1.0092186 0.99419534 1.0317416 1.0345969 0.84783286 0.85147595 0.24457854 -0.60551226
0.7968014 -1.0558524 0.890161 -0.9364058 0.742567 -0.97415346 0.9418057 -0.8947864
1.178793 -0.35309535 -0.96391845 1.09327 -0.7256907 -0.6835343 1.0033191 -1.0406686
-0.8933855 -0.49833232 1.2048068 0.8496843 1.1374727 1.0504472 0.7850668 1.1239815
1.112232 -0.5242074 0.9346271 -0.878664 -0.04682986 0.92234766 0.8069764 -0.33248433
0.68228847 0.7602511 1.0804498 -0.23074216 -1.083082 0.7709864 0.8537191 0.9020078
1.094704 -0.9025259 1.0905721 0.72227025 -0.9579192 0.79511094 -0.5076299 -0.7295182
0.7885561 0.8877198 0.9532482 -0.32091352 0.996591 -0.23652208 -0.81074375 0.93737346
-0.39732775 -0.53548956 -1.1332417 1.0549283 0.7883193 -0.5751581 -0.6783309 0.80376405
1.0203768 0.6506472 0.8844233 -0.81453794 -0.62848735 -0.88185453 0.9702848 0.7350995
1.0439656 0.81978947 -0.6396814 -1.0393753 0.89964384 0.8766725 -0.345763 -0.3338237
0.79259586 -0.47172084 -0.88989633 -0.3338967 0.84621257 -0.02952308 -0.63673884 1.0912945
-0.46838236 1.02525 0.8887811 -0.60194457 1.0383804 -0.32302955 0.8610112 0.8280098
-0.7293788 -0.2557796 -1.0594826 -0.84190696 0.12583832 0.035562772 0.39476368 1.1512365
-0.3356192 1.0539802 0.96925247 0.8670989 -0.09349637 0.89311093 0.53234494 -0.93861187
-0.049699936 0.9075234 -1.0405462 0.7087884 1.1023905 0.8105711 -0.5687399 0.98699963
-0.710003 0.7227832 0.82475823 0.9803324 0.76036084 0.64022803 0.015403955 -0.4073127
0.7397541 -0.96896565 0.93104404 -0.7466216 0.7540317 -0.8441031 0.7847939 -0.8539184
1.0207844 -0.1755661 -0.8874644 0.9334835 -0.73454374 -0.6550783 1.0230225 -0.9588683
-0.704658 -0.585891 1.0624372 0.97908014 1.102365 0.9995696 0.6926111 1.0572551
0.8523226 -0.3192808 0.9896257 -0.8752103 -0.13275932 0.8930202 0.6439718 -0.22220914

W_in f4 [3, 128]
00000000: a60c 733f 60db e53f 3289 56bf fd6f af3f
00000010: 21dd 29bd 2754 c83f 57f7 133f 1009 533f
00000020: 3a9f 71be 1afe 9ebf acbb 5dbf a85e 013f
00000030: 4132 fcbd 7514 803f fad1 323f 05b4 09bd
00000040: c24d ae3f c501 0d3f b89d 30be 2632 3b3f
00000050: 1996 4e3f 8ba7 b63f 1ec7 e8be bee5 81be
00000060: f3b8 cf3e 9f67 923f 18f2 b0bf a3e3 7cbf
00000070: d12f 103f 145c f33e c39d a43e 8b58 583e
00000080: bfc2 0cbf 4e8f ba3f 59c9 b2be 7f8c 1d3e
00000090: d911 473e ab4e 043e fe17 183e 7f58 0540
000000a0: 23c3 aebd c944 a2bf 378e d83e 2916 ddbe
000000b0: 6c1a 66bf ca99 28bf 656d 183f 0ccc 9a3f
000000c0: dd4b 0a3f 17eb e93e c50e 8ebf 5753 3b3f
000000d0: 06d4 8f3f e771 cd3f 8364 a93e b439 d23e
000000e0: 4429 683f 5508 96be f97b e63d 323f 33bd
000000f0: fd25 e3be d41b 203f 2ec1 ac3f e742 423e
00000100: a3c8 953d eba9 ca3f 0a6c 01bf c062 f8bb
00000110: c718 963f 8589 783f 98a2 e43f 2038 39bf
00000120: 3438 843f 4e7a 94be 2689 d33e 618f 1c3f
00000130: f865 c53f 2535 bfbe 09fe cc3f 0a6a 62be
00000140: 239a 903f d39f 173f 7808 0fbf 2f22 053f
00000150: 48d4 84bf 8ba3 563f cd54 c33e 3fda 6fbf
00000160: cd26 fbbe d1ee 8b3f 4854 223f 41d1 debd
00000170: b86d 5d3f 7c51 bc3f 4fd6 813f aa39 133f
00000180: 4fd4 b13f 3976 9abf 5c82 c83e 41bd 8c3e
00000190: d00b 793f ebba 4bbe ebba 603f e384 83bd
000001a0: 6ba6 3cbf decb 533f 3d47 4abf 06c8 573f
000001b0: a12a 6f3e 95c9 633e 8636 5c3d 6a01 93be
000001c0: 1d9a be3e 6d0d d73e 822f 86be 68d8 983d
000001d0: d2ba fbbe c6a8 b4be 812c cb3f 5cad d0be
000001e0: 2133 30bf 3708 dc3e 5aa5 003f 59dd 27bf
000001f0: 2b69 a43f 2a46 0b3f 154e 0340 3f5d 643f
00000200: f8dd e0bf ed17 a9bf ba9c b9bf 9028 a83f
00000210: ad43 6e3f e642 aabf ced6 dbbf ec13 05c0
00000220: f544 80bf 8e9f e13e 9561 89bf b3e8 9ebf
00000230: 4324 0440 2e54 d4bf ac6a e73f 9cf4 043f
00000240: 8fe1 23bf 7180 ebbf e5a6 13c0 7161 af3f
00000250: f15d e2bf 6312 0a40 ef3f cc3f c87d 5cbf
00000260: 7c2f 723f c7a1 1340 4c76 b23f a79d 8dbf
00000270: 8ff3 85be ee0f d13f 5ecc a53f f67d 09bf
00000280: 7350 d5bf e195 b3bf cf38 15c0 95bf c83f
00000290: f18c db3f 7509 ef3f 9827 0fc0 cb41 97bf
000002a0: 6e5a 1ac0 68f3 d7bf 41d9 d83f 6124 bf3f
000002b0: 74ed 1ac0 a84d 32bf 39bb f43e c760 a33f
000002c0: ca5d acbf 61e4 b93f 53a8 e63f 50a9 be3f
000002d0: 3942 a8bf fa57 843f b2c6 eb3f d121 97bf
000002e0: d6a4 903f 3319 c9bf 5e61 c4bf 6ef5 fe3f
000002f0: a0d8 fdbf 0e4e 943f ea64 d0bf 62ff 99bf
00000300: 9bdc fa3f bbdb 0340 0525 7e3f 52af cc3f
00000310: ed6e f33f ca47 eb3e 1edf b4be a000 8dbf
00000320: ff0d cc3f 7d7b 0ebf f2a8 5dbf 2d04 b9bf
00000330: 108e 1e3f 734f afbf ea17 e3be e936 d73f
00000340: e529 a33f af37 08bf 3bb6 463f 032b 93bf
00000350: 74b8 e8bf d792 68bf 89d5 983f bbea 39bf
00000360: 23ec 503d 40c4 bbbf 1e72 e2bf aa61 dfbf
00000370: efa5 8bbe 11a7 aebf 04a4 7e3f f8ff 513f
00000380: 5b54 84bf 29f5 a13f 783b 03c0 1694 e93f
00000390: 6c03 bfbf f101 1e3f 0a12 edbe eb60 c23f
000003a0: 30e8 83bf 93df 3d3f 765e c83f 42f6 0ac0
000003b0: 0ad4 7d3e e152 bb3f 654e 4ebf 7db6 ba3f
000003c0: 1c01 a63f 6542 d03f 5faf b3bf 0a05 8dbb
000003d0: afc2 a4bf c897 edbf 43c6 9abf e989 83bf
000003e0: 136e 60bf 6eb6 e03f 6670 9abf 7e7c ea3e
000003f0: 85fc de3f 67de b7bf e631 ecbf d553 793f
0.94941175 1.7957573 -0.83803093 1.3706051 -0.04147065 1.5650681 0.57799286 0.82435703
-0.23595896 -1.2421296 -0.8661449 0.5053506 -0.12314273 1.0006243 0.6985165 -0.033618946
1.361748 0.55080825 -0.17247665 0.73123395 0.8069778 1.426988 -0.45464414 -0.25370592
0.40570793 1.1437873 -1.3823881 -0.98784846 0.5632296 0.47531188 0.32151613 0.21127526
-0.5498466 1.4574983 -0.3491924 0.15385626 0.19440402 0.12920634 0.14852902 2.0835264
-0.08533313 -1.2677242 0.42296 -0.4318097 -0.89884067 -0.65859663 0.5954192 1.209352
0.5402201 0.45687172 -1.1098257 0.7317404 1.123658 1.6050385 0.33084497 0.4105965
0.90687966 -0.29303232 0.11254115 -0.04376144 -0.4436492 0.6254246 1.3496454 0.18970834
0.07313659 1.5833105 -0.5055548 -0.0075801313 1.1726311 0.9708484 1.786212 -0.72351265
1.0329652 -0.2899956 0.41315573 0.6115628 1.5421743 -0.37345234 1.6015025 -0.22110763
1.1297039 0.5922825 -0.558723 0.52005285 -1.0377283 0.83843297 0.38150635 -0.9369239
-0.4905304 1.0932256 0.63409853 -0.10879756 0.8649554 1.4712367 1.0143527 0.57509863
1.3892916 -1.2067329 0.39161956 0.2748814 0.9728365 -0.19895522 0.87785214 -0.064218305
-0.73691434 0.8273295 -0.7901495 0.84289587 0.23356105 0.22244866 0.053762935 -0.28712016
0.37226954 0.4200243 -0.2620812 0.07463151 -0.4916597 -0.35285014 1.5872957 -0.40757263
-0.68828017 0.42975017 0.50252306 -0.65572125 1.2844595 0.54403937 2.0516407 0.8920478
-1.756774 -1.3210427 -1.4500954 1.3137379 0.93072015 -1.3301666 -1.7174928 -2.079341
-1.0021044 0.44067043 -1.0732905 -1.2414764 2.0647132 -1.658819 1.8079429 0.51935744
-0.6401605 -1.8398572 -2.3070614 1.3701612 -1.7684919 2.1573722 1.5957011 -0.86129427
0.94603705 2.306749 1.3942351 -1.1063737 -0.26162383 1.6332986 1.2952993 -0.53707826
-1.6665176 -1.4030114 -2.3315923 1.5683466 1.7152387 1.8674761 -2.2367916 -1.1816953
-2.4117694 -1.6871157 1.6941301 1.4932977 -2.420743 -0.69649744 0.4779909 1.2763909
-1.3466122 1.4522821 1.8020118 1.489542 -1.314521 1.0339348 1.8420012 -1.1807195
1.1300304 -1.5710815 -1.5342214 1.9918649 -1.9831734 1.158632 -1.6280797 -1.2031062
1.9598573 2.0602863 0.9927524 1.5991004 1.9018227 0.45953208 -0.35326475 -1.1015816
1.5941771 -0.5565718 -0.86585915 -1.4454399 0.6193552 -1.3696121 -0.44354182 1.6813632
1.274716 -0.53209966 0.7762181 -1.1497501 -1.8181291 -0.9084906 1.1940166 -0.72623795
0.051006448 -1.4669266 -1.7691076 -1.745168 -0.27275035 -1.3644735 0.9946902 0.820312
-1.0338243 1.2652942 -2.0505047 1.8248317 -1.4922919 0.6172171 -0.46302825 1.5185827
-1.0305233 0.7416927 1.5653827 -2.1712804 0.24787918 1.4634668 -0.8058837 1.4586941
1.2969089 1.6270262 -1.4037894 -0.004303579 -1.2871913 -1.8561945 -1.2091755 -1.0276462
-0.8766796 1.7555673 -1.2065551 0.45798105 1.7420813 -1.4364747 -1.8452728 0.9739354

b_rec f4 [128]
00000000: f498 053f d47b dc3e 19a3 e43e defa 023f
00000010: 0753 a93e 5f82 fb3e 4d21 c33e a35b f13e
00000020: a2dc 983e 8896 013f ce74 c03e eb1c b63e
00000030: b30b ec3e 635c dc3e 6542 f43e e9b2 c73e
00000040: be7e e43e 50a3 bf3e ec53 da3e 5e67 db3e
00000050: 7fe5 de3e 79e1 fe3e 2add e13e 1ae7 913e
00000060: 6e79 c43e 76c6 093f 0dbb 013f 9441 f13e
00000070: e339 de3e 8cbc e43e 137a ef3e e29a b63e
00000080: fcb4 db3e f52b ef3e 31fe f03e 7331 cf3e
00000090: 70f3 df3e 11e0 ec3e 751a eb3e dd4d e33e
000000a0: 5ac0 dd3e 7c86 043f 051c df3e abcc dd3e
000000b0: 68c1 133f b3ce f33e 90cf fe3e 26fd f43e
000000c0: 0668 bc3e ce48 d83e 3b12 fa3e 50a0 e43e
000000d0: eafa d73e f64e 003f 2738 f23e 84cb a93e
000000e0: 2397 f03e dc1e b13e 5af3 9f3e 7349 d63e
000000f0: f309 e33e 6e4f ec3e 52b7 e53e 9d97 e43e
00000100: ccdb dd3e e18c 083f 7090 de3e a249 c73e
00000110: 0d3e 0f3f ae08 023f cf2e 083f 3619 be3e
00000120: 9243 eb3e 460d b63e 36e5 b83e 76a3 c23e
00000130: de83 123f e971 b83e d9d6 fb3e 6f4c d73e
00000140: 3efe e73e 412a cb3e e149 f33e c245 ba3e
00000150: 0ab9 eb3e 0b35 c13e b575 cc3e 65df c93e
00000160: a624 e93e 7019 e63e 8ef4 cf3e 4ed0 d33e
00000170: 1124 e23e a2a1 da3e 1755 fc3e 523c db3e
00000180: 29e8 e73e e9b9 ef3e 8614 d83e 6fad df3e
00000190: fedb cd3e 33cd c93e af35 e93e 0559 c93e
000001a0: 4176 a43e 8700 eb3e 0df4 113f 1099 073f
000001b0: 01bd e83e 4abc e33e 8687 9f3e 2e20 d13e
000001c0: 95a7 f23e b916 e13e 2af9 ac3e a12f d83e
000001d0: 3908 c73e 11e8 d13e 3ac8 ed3e 91d5 c63e
000001e0: 915e c63e cf99 e73e 93b4 c73e 27d0 e03e
000001f0: d52c 073f 5d03 d13e 088a fc3e 6633 f93e
0.5218651 0.43063223 0.44655684 0.5116404 0.33071157 0.49122903 0.38111344 0.47140226
0.2985583 0.5062032 0.37589115 0.35568938 0.46102676 0.43039235 0.47706905 0.39003685
0.44627947 0.37429285 0.42642152 0.428523 0.43534467 0.49781397 0.44114047 0.2849663
0.38373893 0.5381845 0.5067604 0.47120345 0.4340354 0.446751 0.46772823 0.3566504
0.42911518 0.46713224 0.47068933 0.40467414 0.43740416 0.462647 0.45918623 0.44395342
0.43310815 0.51767707 0.43576065 0.43320212 0.5771699 0.47618636 0.49767733 0.47849387
0.36798114 0.42243046 0.48842034 0.4465356 0.4218362 0.50120485 0.47308466 0.33163083
0.46990308 0.34593856 0.3124035 0.41852912 0.44343528 0.4615435 0.44866425 0.44646922
0.43331754 0.53339964 0.43469572 0.38923365 0.55954057 0.50794494 0.53196424 0.3712861
0.4594999 0.35557002 0.36112374 0.38015336 0.57232463 0.36024407 0.49187353 0.42050502
0.4531116 0.39680675 0.47517303 0.36381346 0.4603961 0.3773578 0.39933553 0.3942825
0.45535773 0.44941282 0.40616268 0.4136986 0.4416814 0.4270144 0.49283668 0.42819458
0.45294312 0.46821526 0.42203158 0.43687007 0.40206903 0.39414367 0.4554877 0.3932573
0.3212147 0.4589884 0.57013017 0.5296793 0.454567 0.4447959 0.31158084 0.40844864
0.4739348 0.4396265 0.33783847 0.42223838 0.3887346 0.40997365 0.46441823 0.38834813
0.38744023 0.45234534 0.39004955 0.43908808 0.52802783 0.40822878 0.4932406 0.48672026

fc_out.weight f4 [2, 128]
00000000: 3c0f 4bbf c613 4fbf 15e0 51bf 6987 423f
00000010: bb25 773f bdf4 31bf e9f6 32bf ee4b 39bf
00000020: bd2a 7abf 474a 773f 6fb2 62bf f8b2 52bf
00000030: d3ab 563f 2cb9 4dbf df66 5c3f 2f61 713f
00000040: 050b 3cbf 8f65 42bf b893 32bf a425 673f
00000050: 40c5 5dbf 5ba8 303f 3bca 5f3f 21d2 55bf
00000060: c6d5 5a3f 78cd 373f 2ef7 463f 5e39 64bf
00000070: 3efb 66bf 9932 523f 66b2 633f c93e 72bf
00000080: a76d 6abf 031f 31bf 2273 50bf a5ef 5e3f
00000090: 49f8 4f3f 1e0c 513f ece9 40bf b03f 49bf
000000a0: 6a7c 3ebf b61a 42bf af00 503f e7c0 683f
000000b0: 6f06 33bf 1fed 6dbf f51d 5e3f 6ea3 5d3f
000000c0: a64f 6bbf 422d 643f 33c0 553f bd5b 5d3f
000000d0: 28a3 52bf 1078 3d3f a419 553f c499 51bf
000000e0: c758 5e3f 7bab 56bf b8a1 4ebf 65a5 513f
000000f0: 60b2 5abf b756 613f a7b9 46bf 5956 3abf
00000100: f2b1 6b3f 585b 523f 11ac 803f 5488 723f
00000110: 7d2e 3d3f 139f 323f 80dc 44bf 55bf 73bf
00000120: caf9 4c3f ee66 53bf 565f 59bf a1ba 45bf
00000130: c5b9 393f 4466 71bf aef5 28bf 88db 7d3f
00000140: 95fe 453f a1bf 5ebf 8ebe 753f afcc 54bf
00000150: f63b 66bf c2e3 52bf 1cb6 663f d92a 81bf
00000160: 84b5 553f 4c51 5bbf cbcb 3ebf b795 54bf
00000170: 5c05 58bf 3d22 3bbf 5b48 3b3f 433f 6a3f
00000180: 2d9c 47bf 2694 5c3f 0b8e 37bf ce44 5d3f
00000190: 2793 5bbf 60c5 653f b416 42bf 27c5 5d3f
000001a0: bb0f 5bbf 0cc6 6e3f 88e1 5d3f 4542 32bf
000001b0: 4c3c 633f 1576 563f 88b2 67bf 2a7b 563f
000001c0: 6c93 493f 420e 6c3f 9baf 5bbf 8933 65bf
000001d0: 0d8c 73bf 2e1a 5ebf 42dd 2cbf 7112 4dbf
000001e0: c36e 7dbf 75ba 713f bde9 59bf 2d43 6a3f
000001f0: d194 543f c1bc 4bbf 2183 34bf c796 623f
00000200: 9152 383f 6988 503f 2677 5d3f c892 57bf
00000210: 669f 80bf 7e50 4a3f 7e61 3f3f b2df 4f3f
00000220: cc71 833f b89a 68bf a51d 843f fb07 553f
00000230: 7e39 55bf 20d8 423f e111 3bbf b9a0 76bf
00000240: 4d1c 533f b584 413f e23d 433f 6da5 62bf
00000250: 6a32 5a3f 3656 44bf 538d 68bf 44d0 673f
00000260: f870 62bf 2bc6 54bf 611c 6ebf e721 573f
00000270: cc35 693f cf42 5fbf c124 48bf dc82 733f
00000280: 4181 653f a03f 493f bac0 413f a1fa 56bf
00000290: aef4 5bbf 53f8 4ebf 55a6 453f ae72 373f
000002a0: 796e 563f 407e 573f 0428 64bf 8bc6 73bf
000002b0: a93f 533f 3b76 4f3f 105e 5dbf 6aa2 49bf
000002c0: c7a0 523f 38d0 64bf 1db8 6bbf 5ad0 69bf
000002d0: 67da 473f 6dae 4fbf 2c74 3abf e49b 5a3f
000002e0: 451b 4abf 6f50 503f 9e5e 453f 0280 75bf
000002f0: e5e3 473f b417 47bf 7596 463f 4ecc 4c3f
00000300: 453e 4bbf 783b 4fbf 372e 5bbf 53bc 61bf
00000310: 45b5 47bf c053 3bbf 43d0 303f 07cc 7f3f
00000320: 38ad 3bbf 4afc 783f e4eb 543f d98a 513f
00000330: 91e2 4dbf 89ee 7d3f 5df8 373f 7db4 71bf
00000340: d5b6 41bf ae61 583f ea27 58bf 9896 723f
00000350: 9575 6f3f 849a 623f ff00 56bf 43d2 6c3f
00000360: f611 4fbf 7eae 433f 3621 5a3f a5ae 443f
00000370: 6688 573f 5ca9 403f 7014 37bf c0ac 5abf
00000380: c3cf 403f 6eb3 71bf c24f 573f 3a8c 45bf
00000390: 7a56 493f d619 5dbf c80d 473f 447e 5abf
000003a0: 4f0d 513f 4b29 5dbf 5638 3cbf 5a42 573f
000003b0: 0efd 4fbf 3d6d 50bf 9f89 7b3f c428 65bf
000003c0: fa89 4dbf 52fb 63bf e006 6f3f 2a12 5d3f
000003d0: f0c0 563f ee02 3f3f 3f1b 523f 67a8 633f
000003e0: 4f31 6b3f b552 5dbf 2973 613f 03fc 73bf
000003f0: ae90 38bf 4852 4e3f 8bba 453f 8bfc 3ebf
-0.7932012 -0.80889547 -0.8198255 0.7598787 0.9654195 -0.69514066 -0.69908005 -0.72381485
-0.97721463 0.96597713 -0.8855352 -0.82304335 0.8385593 -0.80360675 0.8609447 0.94288915
-0.73454314 -0.75936216 -0.6975665 0.9029181 -0.86629105 0.6900689 0.87417954 -0.83523756
0.8548244 0.71797895 0.77720916 -0.89150035 -0.90227115 0.82108456 0.8894409 -0.9462705
-0.91573566 -0.69187945 -0.8142568 0.8708442 0.8123823 0.81659114 -0.75356936 -0.78612804
-0.7440859 -0.7582201 0.81251043 0.90919346 -0.6993169 -0.92939943 0.8676446 0.865775
-0.9191841 0.8913156 0.834964 0.86468107 -0.82280207 0.74011326 0.8324225 -0.8187525
0.86854213 -0.8385541 -0.80715513 0.81893 -0.8542843 0.8802294 -0.77627033 -0.72788006
0.920684 0.8217063 1.005251 0.9473927 0.7389906 0.6977398 -0.76898956 -0.95213825
0.8006865 -0.82578933 -0.84911096 -0.772379 0.72549087 -0.9429667 -0.6599988 0.99163103
0.77341586 -0.8701115 0.9599389 -0.8312482 -0.89935243 -0.8237878 0.90121627 -1.0091201
0.83480096 -0.85670924 -0.74529713 -0.83040947 -0.8438318 -0.7309912 0.7315728 0.9150278
-0.7797268 0.86163557 -0.71701115 0.8643311 -0.8577141 0.89754295 -0.7581589 0.86628956
-0.8557088 0.93270946 0.8667226 -0.6963237 0.8876388 0.8377393 -0.9050679 0.83781683
0.7874057 0.92209256 -0.8581483 -0.8953176 -0.95135576 -0.867587 -0.6752511 -0.80106264
-0.98997134 0.94425136 -0.8512228 0.9150875 0.83039576 -0.7958489 -0.70512587 0.8851132
0.72000986 0.81458145 0.8650993 -0.84208345 -1.0048645 0.7902907 0.74758136 0.81200707
1.0269103 -0.9086108 1.0321547 0.832153 -0.8329085 0.7611103 -0.73074156 -0.96338993
0.8246506 0.7559312 0.762663 -0.8853367 0.85233176 -0.7669405 -0.90840644 0.90552163
-0.88453627 -0.8311488 -0.9301205 0.84036106 0.9109771 -0.87211317 -0.7818108 0.9512155
0.8965035 0.7861271 0.756847 -0.8397618 -0.85920227 -0.8084766 0.7720693 0.7165936
0.8376232 0.8417702 -0.8912356 -0.9522483 0.8251901 0.8103978 -0.86471653 -0.7876345
0.82276577 -0.89380217 -0.9207781 -0.91333544 0.7806763 -0.8112553 -0.72833514 0.8539412
-0.7894786 0.8137273 0.770975 -0.9589845 0.78082114 -0.77770543 0.7757333 0.79999244
-0.7939189 -0.8095012 -0.85617393 -0.88177985 -0.7801097 -0.7317467 0.6906778 0.99920696
-0.73311186 0.9725996 0.8317244 0.8185249 -0.8042384 0.991921 0.7186335 -0.9441603
-0.75669605 0.8452405 -0.84435904 0.9476104 0.9353879 0.8851702 -0.8359527 0.92508334
-0.8088678 0.7643813 0.85206926 0.76828986 0.841925 0.7525842 -0.7151556 -0.85419846
0.7531702 -0.9441441 0.84106076 -0.77167094 0.7864758 -0.8636755 0.77755404 -0.85348916
0.8166093 -0.86391133 -0.7352346 0.8408562 -0.81245506 -0.81416684 0.9825687 -0.8951533
-0.8028866 -0.8905536 0.93369865 0.8635584 0.8388815 0.74613845 0.82072824 0.88928837
0.91872114 -0.86454326 0.88066345 -0.95306414 -0.72095764 0.805943 0.77237767 -0.746041

fc_out.bias f4 [2]
00000000: f7f9 183e 195c 66bd
0.14939104 -0.056240175
